{"format": "layers-model", "generatedBy": "keras v2.2.4-tf", "convertedBy": "TensorFlow.js Converter v1.2.10.1", "modelTopology": {"keras_version": "2.2.4-tf", "backend": "tensorflow", "model_config": {"config": {"input_layers": [["input_2", 0, 0]], "name": "model_2", "layers": [{"config": {"name": "input_2", "batch_input_shape": [null, null, null, 3], "dtype": "float32", "sparse": false}, "name": "input_2", "class_name": "InputLayer", "inbound_nodes": []}, {"config": {"dilation_rate": [1, 1], "activation": "linear", "trainable": true, "kernel_initializer": {"config": {"seed": null, "dtype": "float32"}, "class_name": "GlorotUniform"}, "bias_initializer": {"config": {"dtype": "float32"}, "class_name": "Zeros"}, "padding": "valid", "kernel_constraint": null, "filters": 32, "data_format": "channels_last", "activity_regularizer": null, "use_bias": false, "bias_regularizer": null, "kernel_size": [3, 3], "kernel_regularizer": null, "name": "block1_conv1", "strides": [2, 2], "dtype": "float32", "bias_constraint": null}, "name": "block1_conv1", "class_name": "Conv2D", "inbound_nodes": [[["input_2", 0, 0, {}]]]}, {"config": {"beta_initializer": {"config": {"dtype": "float32"}, "class_name": "Zeros"}, "moving_mean_initializer": {"config": {"dtype": "float32"}, "class_name": "Zeros"}, "gamma_initializer": {"config": {"dtype": "float32"}, "class_name": "Ones"}, "trainable": true, "axis": [3], "epsilon": 0.001, "gamma_regularizer": null, "beta_regularizer": null, "gamma_constraint": null, "moving_variance_initializer": {"config": {"dtype": "float32"}, "class_name": "Ones"}, "momentum": 0.99, "name": "block1_conv1_bn", "beta_constraint": null, "dtype": "float32", "scale": true, "center": true}, "name": "block1_conv1_bn", "class_name": "BatchNormalization", "inbound_nodes": [[["block1_conv1", 0, 0, {}]]]}, {"config": {"activation": "relu", "name": "block1_conv1_act", "trainable": true, "dtype": "float32"}, "name": "block1_conv1_act", "class_name": "Activation", "inbound_nodes": [[["block1_conv1_bn", 0, 0, {}]]]}, {"config": {"dilation_rate": [1, 1], "activation": "linear", "trainable": true, "kernel_initializer": {"config": {"seed": null, "dtype": "float32"}, "class_name": "GlorotUniform"}, "bias_initializer": {"config": {"dtype": "float32"}, "class_name": "Zeros"}, "padding": "valid", "kernel_constraint": null, "filters": 64, "data_format": "channels_last", "activity_regularizer": null, "use_bias": false, "bias_regularizer": null, "kernel_size": [3, 3], "kernel_regularizer": null, "name": "block1_conv2", "strides": [1, 1], "dtype": "float32", "bias_constraint": null}, "name": "block1_conv2", "class_name": "Conv2D", "inbound_nodes": [[["block1_conv1_act", 0, 0, {}]]]}, {"config": {"beta_initializer": {"config": {"dtype": "float32"}, "class_name": "Zeros"}, "moving_mean_initializer": {"config": {"dtype": "float32"}, "class_name": "Zeros"}, "gamma_initializer": {"config": {"dtype": "float32"}, "class_name": "Ones"}, "trainable": true, "axis": [3], "epsilon": 0.001, "gamma_regularizer": null, "beta_regularizer": null, "gamma_constraint": null, "moving_variance_initializer": {"config": {"dtype": "float32"}, "class_name": "Ones"}, "momentum": 0.99, "name": "block1_conv2_bn", "beta_constraint": null, "dtype": "float32", "scale": true, "center": true}, "name": "block1_conv2_bn", "class_name": "BatchNormalization", "inbound_nodes": [[["block1_conv2", 0, 0, {}]]]}, {"config": {"activation": "relu", "name": "block1_conv2_act", "trainable": true, "dtype": "float32"}, "name": "block1_conv2_act", "class_name": "Activation", "inbound_nodes": [[["block1_conv2_bn", 0, 0, {}]]]}, {"config": {"bias_constraint": null, "activation": "linear", "bias_initializer": {"config": {"dtype": "float32"}, "class_name": "Zeros"}, "padding": "same", "kernel_constraint": null, "filters": 128, "depth_multiplier": 1, "activity_regularizer": null, "kernel_size": [3, 3], "pointwise_initializer": {"config": {"seed": null, "dtype": "float32"}, "class_name": "GlorotUniform"}, "dtype": "float32", "dilation_rate": [1, 1], "trainable": true, "kernel_initializer": {"config": {"seed": null, "dtype": "float32"}, "class_name": "GlorotUniform"}, "pointwise_regularizer": null, "depthwise_initializer": {"config": {"seed": null, "dtype": "float32"}, "class_name": "GlorotUniform"}, "pointwise_constraint": null, "bias_regularizer": null, "data_format": "channels_last", "use_bias": false, "kernel_regularizer": null, "name": "block2_sepconv1", "depthwise_constraint": null, "strides": [1, 1], "depthwise_regularizer": null}, "name": "block2_sepconv1", "class_name": "SeparableConv2D", "inbound_nodes": [[["block1_conv2_act", 0, 0, {}]]]}, {"config": {"beta_initializer": {"config": {"dtype": "float32"}, "class_name": "Zeros"}, "moving_mean_initializer": {"config": {"dtype": "float32"}, "class_name": "Zeros"}, "gamma_initializer": {"config": {"dtype": "float32"}, "class_name": "Ones"}, "trainable": true, "axis": [3], "epsilon": 0.001, "gamma_regularizer": null, "beta_regularizer": null, "gamma_constraint": null, "moving_variance_initializer": {"config": {"dtype": "float32"}, "class_name": "Ones"}, "momentum": 0.99, "name": "block2_sepconv1_bn", "beta_constraint": null, "dtype": "float32", "scale": true, "center": true}, "name": "block2_sepconv1_bn", "class_name": "BatchNormalization", "inbound_nodes": [[["block2_sepconv1", 0, 0, {}]]]}, {"config": {"activation": "relu", "name": "block2_sepconv2_act", "trainable": true, "dtype": "float32"}, "name": "block2_sepconv2_act", "class_name": "Activation", "inbound_nodes": [[["block2_sepconv1_bn", 0, 0, {}]]]}, {"config": {"bias_constraint": null, "activation": "linear", "bias_initializer": {"config": {"dtype": "float32"}, "class_name": "Zeros"}, "padding": "same", "kernel_constraint": null, "filters": 128, "depth_multiplier": 1, "activity_regularizer": null, "kernel_size": [3, 3], "pointwise_initializer": {"config": {"seed": null, "dtype": "float32"}, "class_name": "GlorotUniform"}, "dtype": "float32", "dilation_rate": [1, 1], "trainable": true, "kernel_initializer": {"config": {"seed": null, "dtype": "float32"}, "class_name": "GlorotUniform"}, "pointwise_regularizer": null, "depthwise_initializer": {"config": {"seed": null, "dtype": "float32"}, "class_name": "GlorotUniform"}, "pointwise_constraint": null, "bias_regularizer": null, "data_format": "channels_last", "use_bias": false, "kernel_regularizer": null, "name": "block2_sepconv2", "depthwise_constraint": null, "strides": [1, 1], "depthwise_regularizer": null}, "name": "block2_sepconv2", "class_name": "SeparableConv2D", "inbound_nodes": [[["block2_sepconv2_act", 0, 0, {}]]]}, {"config": {"beta_initializer": {"config": {"dtype": "float32"}, "class_name": "Zeros"}, "moving_mean_initializer": {"config": {"dtype": "float32"}, "class_name": "Zeros"}, "gamma_initializer": {"config": {"dtype": "float32"}, "class_name": "Ones"}, "trainable": true, "axis": [3], "epsilon": 0.001, "gamma_regularizer": null, "beta_regularizer": null, "gamma_constraint": null, "moving_variance_initializer": {"config": {"dtype": "float32"}, "class_name": "Ones"}, "momentum": 0.99, "name": "block2_sepconv2_bn", "beta_constraint": null, "dtype": "float32", "scale": true, "center": true}, "name": "block2_sepconv2_bn", "class_name": "BatchNormalization", "inbound_nodes": [[["block2_sepconv2", 0, 0, {}]]]}, {"config": {"dilation_rate": [1, 1], "activation": "linear", "trainable": true, "kernel_initializer": {"config": {"seed": null, "dtype": "float32"}, "class_name": "GlorotUniform"}, "bias_initializer": {"config": {"dtype": "float32"}, "class_name": "Zeros"}, "padding": "same", "kernel_constraint": null, "filters": 128, "data_format": "channels_last", "activity_regularizer": null, "use_bias": false, "bias_regularizer": null, "kernel_size": [1, 1], "kernel_regularizer": null, "name": "conv2d_4", "strides": [2, 2], "dtype": "float32", "bias_constraint": null}, "name": "conv2d_4", "class_name": "Conv2D", "inbound_nodes": [[["block1_conv2_act", 0, 0, {}]]]}, {"config": {"padding": "same", "trainable": true, "dtype": "float32", "name": "block2_pool", "strides": [2, 2], "pool_size": [3, 3], "data_format": "channels_last"}, "name": "block2_pool", "class_name": "MaxPooling2D", "inbound_nodes": [[["block2_sepconv2_bn", 0, 0, {}]]]}, {"config": {"beta_initializer": {"config": {"dtype": "float32"}, "class_name": "Zeros"}, "moving_mean_initializer": {"config": {"dtype": "float32"}, "class_name": "Zeros"}, "gamma_initializer": {"config": {"dtype": "float32"}, "class_name": "Ones"}, "trainable": true, "axis": [3], "epsilon": 0.001, "gamma_regularizer": null, "beta_regularizer": null, "gamma_constraint": null, "moving_variance_initializer": {"config": {"dtype": "float32"}, "class_name": "Ones"}, "momentum": 0.99, "name": "batch_normalization_4", "beta_constraint": null, "dtype": "float32", "scale": true, "center": true}, "name": "batch_normalization_4", "class_name": "BatchNormalization", "inbound_nodes": [[["conv2d_4", 0, 0, {}]]]}, {"config": {"name": "add_12", "trainable": true, "dtype": "float32"}, "name": "add_12", "class_name": "Add", "inbound_nodes": [[["block2_pool", 0, 0, {}], ["batch_normalization_4", 0, 0, {}]]]}, {"config": {"activation": "relu", "name": "block3_sepconv1_act", "trainable": true, "dtype": "float32"}, "name": "block3_sepconv1_act", "class_name": "Activation", "inbound_nodes": [[["add_12", 0, 0, {}]]]}, {"config": {"bias_constraint": null, "activation": "linear", "bias_initializer": {"config": {"dtype": "float32"}, "class_name": "Zeros"}, "padding": "same", "kernel_constraint": null, "filters": 256, "depth_multiplier": 1, "activity_regularizer": null, "kernel_size": [3, 3], "pointwise_initializer": {"config": {"seed": null, "dtype": "float32"}, "class_name": "GlorotUniform"}, "dtype": "float32", "dilation_rate": [1, 1], "trainable": true, "kernel_initializer": {"config": {"seed": null, "dtype": "float32"}, "class_name": "GlorotUniform"}, "pointwise_regularizer": null, "depthwise_initializer": {"config": {"seed": null, "dtype": "float32"}, "class_name": "GlorotUniform"}, "pointwise_constraint": null, "bias_regularizer": null, "data_format": "channels_last", "use_bias": false, "kernel_regularizer": null, "name": "block3_sepconv1", "depthwise_constraint": null, "strides": [1, 1], "depthwise_regularizer": null}, "name": "block3_sepconv1", "class_name": "SeparableConv2D", "inbound_nodes": [[["block3_sepconv1_act", 0, 0, {}]]]}, {"config": {"beta_initializer": {"config": {"dtype": "float32"}, "class_name": "Zeros"}, "moving_mean_initializer": {"config": {"dtype": "float32"}, "class_name": "Zeros"}, "gamma_initializer": {"config": {"dtype": "float32"}, "class_name": "Ones"}, "trainable": true, "axis": [3], "epsilon": 0.001, "gamma_regularizer": null, "beta_regularizer": null, "gamma_constraint": null, "moving_variance_initializer": {"config": {"dtype": "float32"}, "class_name": "Ones"}, "momentum": 0.99, "name": "block3_sepconv1_bn", "beta_constraint": null, "dtype": "float32", "scale": true, "center": true}, "name": "block3_sepconv1_bn", "class_name": "BatchNormalization", "inbound_nodes": [[["block3_sepconv1", 0, 0, {}]]]}, {"config": {"activation": "relu", "name": "block3_sepconv2_act", "trainable": true, "dtype": "float32"}, "name": "block3_sepconv2_act", "class_name": "Activation", "inbound_nodes": [[["block3_sepconv1_bn", 0, 0, {}]]]}, {"config": {"bias_constraint": null, "activation": "linear", "bias_initializer": {"config": {"dtype": "float32"}, "class_name": "Zeros"}, "padding": "same", "kernel_constraint": null, "filters": 256, "depth_multiplier": 1, "activity_regularizer": null, "kernel_size": [3, 3], "pointwise_initializer": {"config": {"seed": null, "dtype": "float32"}, "class_name": "GlorotUniform"}, "dtype": "float32", "dilation_rate": [1, 1], "trainable": true, "kernel_initializer": {"config": {"seed": null, "dtype": "float32"}, "class_name": "GlorotUniform"}, "pointwise_regularizer": null, "depthwise_initializer": {"config": {"seed": null, "dtype": "float32"}, "class_name": "GlorotUniform"}, "pointwise_constraint": null, "bias_regularizer": null, "data_format": "channels_last", "use_bias": false, "kernel_regularizer": null, "name": "block3_sepconv2", "depthwise_constraint": null, "strides": [1, 1], "depthwise_regularizer": null}, "name": "block3_sepconv2", "class_name": "SeparableConv2D", "inbound_nodes": [[["block3_sepconv2_act", 0, 0, {}]]]}, {"config": {"beta_initializer": {"config": {"dtype": "float32"}, "class_name": "Zeros"}, "moving_mean_initializer": {"config": {"dtype": "float32"}, "class_name": "Zeros"}, "gamma_initializer": {"config": {"dtype": "float32"}, "class_name": "Ones"}, "trainable": true, "axis": [3], "epsilon": 0.001, "gamma_regularizer": null, "beta_regularizer": null, "gamma_constraint": null, "moving_variance_initializer": {"config": {"dtype": "float32"}, "class_name": "Ones"}, "momentum": 0.99, "name": "block3_sepconv2_bn", "beta_constraint": null, "dtype": "float32", "scale": true, "center": true}, "name": "block3_sepconv2_bn", "class_name": "BatchNormalization", "inbound_nodes": [[["block3_sepconv2", 0, 0, {}]]]}, {"config": {"dilation_rate": [1, 1], "activation": "linear", "trainable": true, "kernel_initializer": {"config": {"seed": null, "dtype": "float32"}, "class_name": "GlorotUniform"}, "bias_initializer": {"config": {"dtype": "float32"}, "class_name": "Zeros"}, "padding": "same", "kernel_constraint": null, "filters": 256, "data_format": "channels_last", "activity_regularizer": null, "use_bias": false, "bias_regularizer": null, "kernel_size": [1, 1], "kernel_regularizer": null, "name": "conv2d_5", "strides": [2, 2], "dtype": "float32", "bias_constraint": null}, "name": "conv2d_5", "class_name": "Conv2D", "inbound_nodes": [[["add_12", 0, 0, {}]]]}, {"config": {"padding": "same", "trainable": true, "dtype": "float32", "name": "block3_pool", "strides": [2, 2], "pool_size": [3, 3], "data_format": "channels_last"}, "name": "block3_pool", "class_name": "MaxPooling2D", "inbound_nodes": [[["block3_sepconv2_bn", 0, 0, {}]]]}, {"config": {"beta_initializer": {"config": {"dtype": "float32"}, "class_name": "Zeros"}, "moving_mean_initializer": {"config": {"dtype": "float32"}, "class_name": "Zeros"}, "gamma_initializer": {"config": {"dtype": "float32"}, "class_name": "Ones"}, "trainable": true, "axis": [3], "epsilon": 0.001, "gamma_regularizer": null, "beta_regularizer": null, "gamma_constraint": null, "moving_variance_initializer": {"config": {"dtype": "float32"}, "class_name": "Ones"}, "momentum": 0.99, "name": "batch_normalization_5", "beta_constraint": null, "dtype": "float32", "scale": true, "center": true}, "name": "batch_normalization_5", "class_name": "BatchNormalization", "inbound_nodes": [[["conv2d_5", 0, 0, {}]]]}, {"config": {"name": "add_13", "trainable": true, "dtype": "float32"}, "name": "add_13", "class_name": "Add", "inbound_nodes": [[["block3_pool", 0, 0, {}], ["batch_normalization_5", 0, 0, {}]]]}, {"config": {"activation": "relu", "name": "block4_sepconv1_act", "trainable": true, "dtype": "float32"}, "name": "block4_sepconv1_act", "class_name": "Activation", "inbound_nodes": [[["add_13", 0, 0, {}]]]}, {"config": {"bias_constraint": null, "activation": "linear", "bias_initializer": {"config": {"dtype": "float32"}, "class_name": "Zeros"}, "padding": "same", "kernel_constraint": null, "filters": 728, "depth_multiplier": 1, "activity_regularizer": null, "kernel_size": [3, 3], "pointwise_initializer": {"config": {"seed": null, "dtype": "float32"}, "class_name": "GlorotUniform"}, "dtype": "float32", "dilation_rate": [1, 1], "trainable": true, "kernel_initializer": {"config": {"seed": null, "dtype": "float32"}, "class_name": "GlorotUniform"}, "pointwise_regularizer": null, "depthwise_initializer": {"config": {"seed": null, "dtype": "float32"}, "class_name": "GlorotUniform"}, "pointwise_constraint": null, "bias_regularizer": null, "data_format": "channels_last", "use_bias": false, "kernel_regularizer": null, "name": "block4_sepconv1", "depthwise_constraint": null, "strides": [1, 1], "depthwise_regularizer": null}, "name": "block4_sepconv1", "class_name": "SeparableConv2D", "inbound_nodes": [[["block4_sepconv1_act", 0, 0, {}]]]}, {"config": {"beta_initializer": {"config": {"dtype": "float32"}, "class_name": "Zeros"}, "moving_mean_initializer": {"config": {"dtype": "float32"}, "class_name": "Zeros"}, "gamma_initializer": {"config": {"dtype": "float32"}, "class_name": "Ones"}, "trainable": true, "axis": [3], "epsilon": 0.001, "gamma_regularizer": null, "beta_regularizer": null, "gamma_constraint": null, "moving_variance_initializer": {"config": {"dtype": "float32"}, "class_name": "Ones"}, "momentum": 0.99, "name": "block4_sepconv1_bn", "beta_constraint": null, "dtype": "float32", "scale": true, "center": true}, "name": "block4_sepconv1_bn", "class_name": "BatchNormalization", "inbound_nodes": [[["block4_sepconv1", 0, 0, {}]]]}, {"config": {"activation": "relu", "name": "block4_sepconv2_act", "trainable": true, "dtype": "float32"}, "name": "block4_sepconv2_act", "class_name": "Activation", "inbound_nodes": [[["block4_sepconv1_bn", 0, 0, {}]]]}, {"config": {"bias_constraint": null, "activation": "linear", "bias_initializer": {"config": {"dtype": "float32"}, "class_name": "Zeros"}, "padding": "same", "kernel_constraint": null, "filters": 728, "depth_multiplier": 1, "activity_regularizer": null, "kernel_size": [3, 3], "pointwise_initializer": {"config": {"seed": null, "dtype": "float32"}, "class_name": "GlorotUniform"}, "dtype": "float32", "dilation_rate": [1, 1], "trainable": true, "kernel_initializer": {"config": {"seed": null, "dtype": "float32"}, "class_name": "GlorotUniform"}, "pointwise_regularizer": null, "depthwise_initializer": {"config": {"seed": null, "dtype": "float32"}, "class_name": "GlorotUniform"}, "pointwise_constraint": null, "bias_regularizer": null, "data_format": "channels_last", "use_bias": false, "kernel_regularizer": null, "name": "block4_sepconv2", "depthwise_constraint": null, "strides": [1, 1], "depthwise_regularizer": null}, "name": "block4_sepconv2", "class_name": "SeparableConv2D", "inbound_nodes": [[["block4_sepconv2_act", 0, 0, {}]]]}, {"config": {"beta_initializer": {"config": {"dtype": "float32"}, "class_name": "Zeros"}, "moving_mean_initializer": {"config": {"dtype": "float32"}, "class_name": "Zeros"}, "gamma_initializer": {"config": {"dtype": "float32"}, "class_name": "Ones"}, "trainable": true, "axis": [3], "epsilon": 0.001, "gamma_regularizer": null, "beta_regularizer": null, "gamma_constraint": null, "moving_variance_initializer": {"config": {"dtype": "float32"}, "class_name": "Ones"}, "momentum": 0.99, "name": "block4_sepconv2_bn", "beta_constraint": null, "dtype": "float32", "scale": true, "center": true}, "name": "block4_sepconv2_bn", "class_name": "BatchNormalization", "inbound_nodes": [[["block4_sepconv2", 0, 0, {}]]]}, {"config": {"dilation_rate": [1, 1], "activation": "linear", "trainable": true, "kernel_initializer": {"config": {"seed": null, "dtype": "float32"}, "class_name": "GlorotUniform"}, "bias_initializer": {"config": {"dtype": "float32"}, "class_name": "Zeros"}, "padding": "same", "kernel_constraint": null, "filters": 728, "data_format": "channels_last", "activity_regularizer": null, "use_bias": false, "bias_regularizer": null, "kernel_size": [1, 1], "kernel_regularizer": null, "name": "conv2d_6", "strides": [2, 2], "dtype": "float32", "bias_constraint": null}, "name": "conv2d_6", "class_name": "Conv2D", "inbound_nodes": [[["add_13", 0, 0, {}]]]}, {"config": {"padding": "same", "trainable": true, "dtype": "float32", "name": "block4_pool", "strides": [2, 2], "pool_size": [3, 3], "data_format": "channels_last"}, "name": "block4_pool", "class_name": "MaxPooling2D", "inbound_nodes": [[["block4_sepconv2_bn", 0, 0, {}]]]}, {"config": {"beta_initializer": {"config": {"dtype": "float32"}, "class_name": "Zeros"}, "moving_mean_initializer": {"config": {"dtype": "float32"}, "class_name": "Zeros"}, "gamma_initializer": {"config": {"dtype": "float32"}, "class_name": "Ones"}, "trainable": true, "axis": [3], "epsilon": 0.001, "gamma_regularizer": null, "beta_regularizer": null, "gamma_constraint": null, "moving_variance_initializer": {"config": {"dtype": "float32"}, "class_name": "Ones"}, "momentum": 0.99, "name": "batch_normalization_6", "beta_constraint": null, "dtype": "float32", "scale": true, "center": true}, "name": "batch_normalization_6", "class_name": "BatchNormalization", "inbound_nodes": [[["conv2d_6", 0, 0, {}]]]}, {"config": {"name": "add_14", "trainable": true, "dtype": "float32"}, "name": "add_14", "class_name": "Add", "inbound_nodes": [[["block4_pool", 0, 0, {}], ["batch_normalization_6", 0, 0, {}]]]}, {"config": {"activation": "relu", "name": "block5_sepconv1_act", "trainable": true, "dtype": "float32"}, "name": "block5_sepconv1_act", "class_name": "Activation", "inbound_nodes": [[["add_14", 0, 0, {}]]]}, {"config": {"bias_constraint": null, "activation": "linear", "bias_initializer": {"config": {"dtype": "float32"}, "class_name": "Zeros"}, "padding": "same", "kernel_constraint": null, "filters": 728, "depth_multiplier": 1, "activity_regularizer": null, "kernel_size": [3, 3], "pointwise_initializer": {"config": {"seed": null, "dtype": "float32"}, "class_name": "GlorotUniform"}, "dtype": "float32", "dilation_rate": [1, 1], "trainable": true, "kernel_initializer": {"config": {"seed": null, "dtype": "float32"}, "class_name": "GlorotUniform"}, "pointwise_regularizer": null, "depthwise_initializer": {"config": {"seed": null, "dtype": "float32"}, "class_name": "GlorotUniform"}, "pointwise_constraint": null, "bias_regularizer": null, "data_format": "channels_last", "use_bias": false, "kernel_regularizer": null, "name": "block5_sepconv1", "depthwise_constraint": null, "strides": [1, 1], "depthwise_regularizer": null}, "name": "block5_sepconv1", "class_name": "SeparableConv2D", "inbound_nodes": [[["block5_sepconv1_act", 0, 0, {}]]]}, {"config": {"beta_initializer": {"config": {"dtype": "float32"}, "class_name": "Zeros"}, "moving_mean_initializer": {"config": {"dtype": "float32"}, "class_name": "Zeros"}, "gamma_initializer": {"config": {"dtype": "float32"}, "class_name": "Ones"}, "trainable": true, "axis": [3], "epsilon": 0.001, "gamma_regularizer": null, "beta_regularizer": null, "gamma_constraint": null, "moving_variance_initializer": {"config": {"dtype": "float32"}, "class_name": "Ones"}, "momentum": 0.99, "name": "block5_sepconv1_bn", "beta_constraint": null, "dtype": "float32", "scale": true, "center": true}, "name": "block5_sepconv1_bn", "class_name": "BatchNormalization", "inbound_nodes": [[["block5_sepconv1", 0, 0, {}]]]}, {"config": {"activation": "relu", "name": "block5_sepconv2_act", "trainable": true, "dtype": "float32"}, "name": "block5_sepconv2_act", "class_name": "Activation", "inbound_nodes": [[["block5_sepconv1_bn", 0, 0, {}]]]}, {"config": {"bias_constraint": null, "activation": "linear", "bias_initializer": {"config": {"dtype": "float32"}, "class_name": "Zeros"}, "padding": "same", "kernel_constraint": null, "filters": 728, "depth_multiplier": 1, "activity_regularizer": null, "kernel_size": [3, 3], "pointwise_initializer": {"config": {"seed": null, "dtype": "float32"}, "class_name": "GlorotUniform"}, "dtype": "float32", "dilation_rate": [1, 1], "trainable": true, "kernel_initializer": {"config": {"seed": null, "dtype": "float32"}, "class_name": "GlorotUniform"}, "pointwise_regularizer": null, "depthwise_initializer": {"config": {"seed": null, "dtype": "float32"}, "class_name": "GlorotUniform"}, "pointwise_constraint": null, "bias_regularizer": null, "data_format": "channels_last", "use_bias": false, "kernel_regularizer": null, "name": "block5_sepconv2", "depthwise_constraint": null, "strides": [1, 1], "depthwise_regularizer": null}, "name": "block5_sepconv2", "class_name": "SeparableConv2D", "inbound_nodes": [[["block5_sepconv2_act", 0, 0, {}]]]}, {"config": {"beta_initializer": {"config": {"dtype": "float32"}, "class_name": "Zeros"}, "moving_mean_initializer": {"config": {"dtype": "float32"}, "class_name": "Zeros"}, "gamma_initializer": {"config": {"dtype": "float32"}, "class_name": "Ones"}, "trainable": true, "axis": [3], "epsilon": 0.001, "gamma_regularizer": null, "beta_regularizer": null, "gamma_constraint": null, "moving_variance_initializer": {"config": {"dtype": "float32"}, "class_name": "Ones"}, "momentum": 0.99, "name": "block5_sepconv2_bn", "beta_constraint": null, "dtype": "float32", "scale": true, "center": true}, "name": "block5_sepconv2_bn", "class_name": "BatchNormalization", "inbound_nodes": [[["block5_sepconv2", 0, 0, {}]]]}, {"config": {"activation": "relu", "name": "block5_sepconv3_act", "trainable": true, "dtype": "float32"}, "name": "block5_sepconv3_act", "class_name": "Activation", "inbound_nodes": [[["block5_sepconv2_bn", 0, 0, {}]]]}, {"config": {"bias_constraint": null, "activation": "linear", "bias_initializer": {"config": {"dtype": "float32"}, "class_name": "Zeros"}, "padding": "same", "kernel_constraint": null, "filters": 728, "depth_multiplier": 1, "activity_regularizer": null, "kernel_size": [3, 3], "pointwise_initializer": {"config": {"seed": null, "dtype": "float32"}, "class_name": "GlorotUniform"}, "dtype": "float32", "dilation_rate": [1, 1], "trainable": true, "kernel_initializer": {"config": {"seed": null, "dtype": "float32"}, "class_name": "GlorotUniform"}, "pointwise_regularizer": null, "depthwise_initializer": {"config": {"seed": null, "dtype": "float32"}, "class_name": "GlorotUniform"}, "pointwise_constraint": null, "bias_regularizer": null, "data_format": "channels_last", "use_bias": false, "kernel_regularizer": null, "name": "block5_sepconv3", "depthwise_constraint": null, "strides": [1, 1], "depthwise_regularizer": null}, "name": "block5_sepconv3", "class_name": "SeparableConv2D", "inbound_nodes": [[["block5_sepconv3_act", 0, 0, {}]]]}, {"config": {"beta_initializer": {"config": {"dtype": "float32"}, "class_name": "Zeros"}, "moving_mean_initializer": {"config": {"dtype": "float32"}, "class_name": "Zeros"}, "gamma_initializer": {"config": {"dtype": "float32"}, "class_name": "Ones"}, "trainable": true, "axis": [3], "epsilon": 0.001, "gamma_regularizer": null, "beta_regularizer": null, "gamma_constraint": null, "moving_variance_initializer": {"config": {"dtype": "float32"}, "class_name": "Ones"}, "momentum": 0.99, "name": "block5_sepconv3_bn", "beta_constraint": null, "dtype": "float32", "scale": true, "center": true}, "name": "block5_sepconv3_bn", "class_name": "BatchNormalization", "inbound_nodes": [[["block5_sepconv3", 0, 0, {}]]]}, {"config": {"name": "add_15", "trainable": true, "dtype": "float32"}, "name": "add_15", "class_name": "Add", "inbound_nodes": [[["block5_sepconv3_bn", 0, 0, {}], ["add_14", 0, 0, {}]]]}, {"config": {"activation": "relu", "name": "block6_sepconv1_act", "trainable": true, "dtype": "float32"}, "name": "block6_sepconv1_act", "class_name": "Activation", "inbound_nodes": [[["add_15", 0, 0, {}]]]}, {"config": {"bias_constraint": null, "activation": "linear", "bias_initializer": {"config": {"dtype": "float32"}, "class_name": "Zeros"}, "padding": "same", "kernel_constraint": null, "filters": 728, "depth_multiplier": 1, "activity_regularizer": null, "kernel_size": [3, 3], "pointwise_initializer": {"config": {"seed": null, "dtype": "float32"}, "class_name": "GlorotUniform"}, "dtype": "float32", "dilation_rate": [1, 1], "trainable": true, "kernel_initializer": {"config": {"seed": null, "dtype": "float32"}, "class_name": "GlorotUniform"}, "pointwise_regularizer": null, "depthwise_initializer": {"config": {"seed": null, "dtype": "float32"}, "class_name": "GlorotUniform"}, "pointwise_constraint": null, "bias_regularizer": null, "data_format": "channels_last", "use_bias": false, "kernel_regularizer": null, "name": "block6_sepconv1", "depthwise_constraint": null, "strides": [1, 1], "depthwise_regularizer": null}, "name": "block6_sepconv1", "class_name": "SeparableConv2D", "inbound_nodes": [[["block6_sepconv1_act", 0, 0, {}]]]}, {"config": {"beta_initializer": {"config": {"dtype": "float32"}, "class_name": "Zeros"}, "moving_mean_initializer": {"config": {"dtype": "float32"}, "class_name": "Zeros"}, "gamma_initializer": {"config": {"dtype": "float32"}, "class_name": "Ones"}, "trainable": true, "axis": [3], "epsilon": 0.001, "gamma_regularizer": null, "beta_regularizer": null, "gamma_constraint": null, "moving_variance_initializer": {"config": {"dtype": "float32"}, "class_name": "Ones"}, "momentum": 0.99, "name": "block6_sepconv1_bn", "beta_constraint": null, "dtype": "float32", "scale": true, "center": true}, "name": "block6_sepconv1_bn", "class_name": "BatchNormalization", "inbound_nodes": [[["block6_sepconv1", 0, 0, {}]]]}, {"config": {"activation": "relu", "name": "block6_sepconv2_act", "trainable": true, "dtype": "float32"}, "name": "block6_sepconv2_act", "class_name": "Activation", "inbound_nodes": [[["block6_sepconv1_bn", 0, 0, {}]]]}, {"config": {"bias_constraint": null, "activation": "linear", "bias_initializer": {"config": {"dtype": "float32"}, "class_name": "Zeros"}, "padding": "same", "kernel_constraint": null, "filters": 728, "depth_multiplier": 1, "activity_regularizer": null, "kernel_size": [3, 3], "pointwise_initializer": {"config": {"seed": null, "dtype": "float32"}, "class_name": "GlorotUniform"}, "dtype": "float32", "dilation_rate": [1, 1], "trainable": true, "kernel_initializer": {"config": {"seed": null, "dtype": "float32"}, "class_name": "GlorotUniform"}, "pointwise_regularizer": null, "depthwise_initializer": {"config": {"seed": null, "dtype": "float32"}, "class_name": "GlorotUniform"}, "pointwise_constraint": null, "bias_regularizer": null, "data_format": "channels_last", "use_bias": false, "kernel_regularizer": null, "name": "block6_sepconv2", "depthwise_constraint": null, "strides": [1, 1], "depthwise_regularizer": null}, "name": "block6_sepconv2", "class_name": "SeparableConv2D", "inbound_nodes": [[["block6_sepconv2_act", 0, 0, {}]]]}, {"config": {"beta_initializer": {"config": {"dtype": "float32"}, "class_name": "Zeros"}, "moving_mean_initializer": {"config": {"dtype": "float32"}, "class_name": "Zeros"}, "gamma_initializer": {"config": {"dtype": "float32"}, "class_name": "Ones"}, "trainable": true, "axis": [3], "epsilon": 0.001, "gamma_regularizer": null, "beta_regularizer": null, "gamma_constraint": null, "moving_variance_initializer": {"config": {"dtype": "float32"}, "class_name": "Ones"}, "momentum": 0.99, "name": "block6_sepconv2_bn", "beta_constraint": null, "dtype": "float32", "scale": true, "center": true}, "name": "block6_sepconv2_bn", "class_name": "BatchNormalization", "inbound_nodes": [[["block6_sepconv2", 0, 0, {}]]]}, {"config": {"activation": "relu", "name": "block6_sepconv3_act", "trainable": true, "dtype": "float32"}, "name": "block6_sepconv3_act", "class_name": "Activation", "inbound_nodes": [[["block6_sepconv2_bn", 0, 0, {}]]]}, {"config": {"bias_constraint": null, "activation": "linear", "bias_initializer": {"config": {"dtype": "float32"}, "class_name": "Zeros"}, "padding": "same", "kernel_constraint": null, "filters": 728, "depth_multiplier": 1, "activity_regularizer": null, "kernel_size": [3, 3], "pointwise_initializer": {"config": {"seed": null, "dtype": "float32"}, "class_name": "GlorotUniform"}, "dtype": "float32", "dilation_rate": [1, 1], "trainable": true, "kernel_initializer": {"config": {"seed": null, "dtype": "float32"}, "class_name": "GlorotUniform"}, "pointwise_regularizer": null, "depthwise_initializer": {"config": {"seed": null, "dtype": "float32"}, "class_name": "GlorotUniform"}, "pointwise_constraint": null, "bias_regularizer": null, "data_format": "channels_last", "use_bias": false, "kernel_regularizer": null, "name": "block6_sepconv3", "depthwise_constraint": null, "strides": [1, 1], "depthwise_regularizer": null}, "name": "block6_sepconv3", "class_name": "SeparableConv2D", "inbound_nodes": [[["block6_sepconv3_act", 0, 0, {}]]]}, {"config": {"beta_initializer": {"config": {"dtype": "float32"}, "class_name": "Zeros"}, "moving_mean_initializer": {"config": {"dtype": "float32"}, "class_name": "Zeros"}, "gamma_initializer": {"config": {"dtype": "float32"}, "class_name": "Ones"}, "trainable": true, "axis": [3], "epsilon": 0.001, "gamma_regularizer": null, "beta_regularizer": null, "gamma_constraint": null, "moving_variance_initializer": {"config": {"dtype": "float32"}, "class_name": "Ones"}, "momentum": 0.99, "name": "block6_sepconv3_bn", "beta_constraint": null, "dtype": "float32", "scale": true, "center": true}, "name": "block6_sepconv3_bn", "class_name": "BatchNormalization", "inbound_nodes": [[["block6_sepconv3", 0, 0, {}]]]}, {"config": {"name": "add_16", "trainable": true, "dtype": "float32"}, "name": "add_16", "class_name": "Add", "inbound_nodes": [[["block6_sepconv3_bn", 0, 0, {}], ["add_15", 0, 0, {}]]]}, {"config": {"activation": "relu", "name": "block7_sepconv1_act", "trainable": true, "dtype": "float32"}, "name": "block7_sepconv1_act", "class_name": "Activation", "inbound_nodes": [[["add_16", 0, 0, {}]]]}, {"config": {"bias_constraint": null, "activation": "linear", "bias_initializer": {"config": {"dtype": "float32"}, "class_name": "Zeros"}, "padding": "same", "kernel_constraint": null, "filters": 728, "depth_multiplier": 1, "activity_regularizer": null, "kernel_size": [3, 3], "pointwise_initializer": {"config": {"seed": null, "dtype": "float32"}, "class_name": "GlorotUniform"}, "dtype": "float32", "dilation_rate": [1, 1], "trainable": true, "kernel_initializer": {"config": {"seed": null, "dtype": "float32"}, "class_name": "GlorotUniform"}, "pointwise_regularizer": null, "depthwise_initializer": {"config": {"seed": null, "dtype": "float32"}, "class_name": "GlorotUniform"}, "pointwise_constraint": null, "bias_regularizer": null, "data_format": "channels_last", "use_bias": false, "kernel_regularizer": null, "name": "block7_sepconv1", "depthwise_constraint": null, "strides": [1, 1], "depthwise_regularizer": null}, "name": "block7_sepconv1", "class_name": "SeparableConv2D", "inbound_nodes": [[["block7_sepconv1_act", 0, 0, {}]]]}, {"config": {"beta_initializer": {"config": {"dtype": "float32"}, "class_name": "Zeros"}, "moving_mean_initializer": {"config": {"dtype": "float32"}, "class_name": "Zeros"}, "gamma_initializer": {"config": {"dtype": "float32"}, "class_name": "Ones"}, "trainable": true, "axis": [3], "epsilon": 0.001, "gamma_regularizer": null, "beta_regularizer": null, "gamma_constraint": null, "moving_variance_initializer": {"config": {"dtype": "float32"}, "class_name": "Ones"}, "momentum": 0.99, "name": "block7_sepconv1_bn", "beta_constraint": null, "dtype": "float32", "scale": true, "center": true}, "name": "block7_sepconv1_bn", "class_name": "BatchNormalization", "inbound_nodes": [[["block7_sepconv1", 0, 0, {}]]]}, {"config": {"activation": "relu", "name": "block7_sepconv2_act", "trainable": true, "dtype": "float32"}, "name": "block7_sepconv2_act", "class_name": "Activation", "inbound_nodes": [[["block7_sepconv1_bn", 0, 0, {}]]]}, {"config": {"bias_constraint": null, "activation": "linear", "bias_initializer": {"config": {"dtype": "float32"}, "class_name": "Zeros"}, "padding": "same", "kernel_constraint": null, "filters": 728, "depth_multiplier": 1, "activity_regularizer": null, "kernel_size": [3, 3], "pointwise_initializer": {"config": {"seed": null, "dtype": "float32"}, "class_name": "GlorotUniform"}, "dtype": "float32", "dilation_rate": [1, 1], "trainable": true, "kernel_initializer": {"config": {"seed": null, "dtype": "float32"}, "class_name": "GlorotUniform"}, "pointwise_regularizer": null, "depthwise_initializer": {"config": {"seed": null, "dtype": "float32"}, "class_name": "GlorotUniform"}, "pointwise_constraint": null, "bias_regularizer": null, "data_format": "channels_last", "use_bias": false, "kernel_regularizer": null, "name": "block7_sepconv2", "depthwise_constraint": null, "strides": [1, 1], "depthwise_regularizer": null}, "name": "block7_sepconv2", "class_name": "SeparableConv2D", "inbound_nodes": [[["block7_sepconv2_act", 0, 0, {}]]]}, {"config": {"beta_initializer": {"config": {"dtype": "float32"}, "class_name": "Zeros"}, "moving_mean_initializer": {"config": {"dtype": "float32"}, "class_name": "Zeros"}, "gamma_initializer": {"config": {"dtype": "float32"}, "class_name": "Ones"}, "trainable": true, "axis": [3], "epsilon": 0.001, "gamma_regularizer": null, "beta_regularizer": null, "gamma_constraint": null, "moving_variance_initializer": {"config": {"dtype": "float32"}, "class_name": "Ones"}, "momentum": 0.99, "name": "block7_sepconv2_bn", "beta_constraint": null, "dtype": "float32", "scale": true, "center": true}, "name": "block7_sepconv2_bn", "class_name": "BatchNormalization", "inbound_nodes": [[["block7_sepconv2", 0, 0, {}]]]}, {"config": {"activation": "relu", "name": "block7_sepconv3_act", "trainable": true, "dtype": "float32"}, "name": "block7_sepconv3_act", "class_name": "Activation", "inbound_nodes": [[["block7_sepconv2_bn", 0, 0, {}]]]}, {"config": {"bias_constraint": null, "activation": "linear", "bias_initializer": {"config": {"dtype": "float32"}, "class_name": "Zeros"}, "padding": "same", "kernel_constraint": null, "filters": 728, "depth_multiplier": 1, "activity_regularizer": null, "kernel_size": [3, 3], "pointwise_initializer": {"config": {"seed": null, "dtype": "float32"}, "class_name": "GlorotUniform"}, "dtype": "float32", "dilation_rate": [1, 1], "trainable": true, "kernel_initializer": {"config": {"seed": null, "dtype": "float32"}, "class_name": "GlorotUniform"}, "pointwise_regularizer": null, "depthwise_initializer": {"config": {"seed": null, "dtype": "float32"}, "class_name": "GlorotUniform"}, "pointwise_constraint": null, "bias_regularizer": null, "data_format": "channels_last", "use_bias": false, "kernel_regularizer": null, "name": "block7_sepconv3", "depthwise_constraint": null, "strides": [1, 1], "depthwise_regularizer": null}, "name": "block7_sepconv3", "class_name": "SeparableConv2D", "inbound_nodes": [[["block7_sepconv3_act", 0, 0, {}]]]}, {"config": {"beta_initializer": {"config": {"dtype": "float32"}, "class_name": "Zeros"}, "moving_mean_initializer": {"config": {"dtype": "float32"}, "class_name": "Zeros"}, "gamma_initializer": {"config": {"dtype": "float32"}, "class_name": "Ones"}, "trainable": true, "axis": [3], "epsilon": 0.001, "gamma_regularizer": null, "beta_regularizer": null, "gamma_constraint": null, "moving_variance_initializer": {"config": {"dtype": "float32"}, "class_name": "Ones"}, "momentum": 0.99, "name": "block7_sepconv3_bn", "beta_constraint": null, "dtype": "float32", "scale": true, "center": true}, "name": "block7_sepconv3_bn", "class_name": "BatchNormalization", "inbound_nodes": [[["block7_sepconv3", 0, 0, {}]]]}, {"config": {"name": "add_17", "trainable": true, "dtype": "float32"}, "name": "add_17", "class_name": "Add", "inbound_nodes": [[["block7_sepconv3_bn", 0, 0, {}], ["add_16", 0, 0, {}]]]}, {"config": {"activation": "relu", "name": "block8_sepconv1_act", "trainable": true, "dtype": "float32"}, "name": "block8_sepconv1_act", "class_name": "Activation", "inbound_nodes": [[["add_17", 0, 0, {}]]]}, {"config": {"bias_constraint": null, "activation": "linear", "bias_initializer": {"config": {"dtype": "float32"}, "class_name": "Zeros"}, "padding": "same", "kernel_constraint": null, "filters": 728, "depth_multiplier": 1, "activity_regularizer": null, "kernel_size": [3, 3], "pointwise_initializer": {"config": {"seed": null, "dtype": "float32"}, "class_name": "GlorotUniform"}, "dtype": "float32", "dilation_rate": [1, 1], "trainable": true, "kernel_initializer": {"config": {"seed": null, "dtype": "float32"}, "class_name": "GlorotUniform"}, "pointwise_regularizer": null, "depthwise_initializer": {"config": {"seed": null, "dtype": "float32"}, "class_name": "GlorotUniform"}, "pointwise_constraint": null, "bias_regularizer": null, "data_format": "channels_last", "use_bias": false, "kernel_regularizer": null, "name": "block8_sepconv1", "depthwise_constraint": null, "strides": [1, 1], "depthwise_regularizer": null}, "name": "block8_sepconv1", "class_name": "SeparableConv2D", "inbound_nodes": [[["block8_sepconv1_act", 0, 0, {}]]]}, {"config": {"beta_initializer": {"config": {"dtype": "float32"}, "class_name": "Zeros"}, "moving_mean_initializer": {"config": {"dtype": "float32"}, "class_name": "Zeros"}, "gamma_initializer": {"config": {"dtype": "float32"}, "class_name": "Ones"}, "trainable": true, "axis": [3], "epsilon": 0.001, "gamma_regularizer": null, "beta_regularizer": null, "gamma_constraint": null, "moving_variance_initializer": {"config": {"dtype": "float32"}, "class_name": "Ones"}, "momentum": 0.99, "name": "block8_sepconv1_bn", "beta_constraint": null, "dtype": "float32", "scale": true, "center": true}, "name": "block8_sepconv1_bn", "class_name": "BatchNormalization", "inbound_nodes": [[["block8_sepconv1", 0, 0, {}]]]}, {"config": {"activation": "relu", "name": "block8_sepconv2_act", "trainable": true, "dtype": "float32"}, "name": "block8_sepconv2_act", "class_name": "Activation", "inbound_nodes": [[["block8_sepconv1_bn", 0, 0, {}]]]}, {"config": {"bias_constraint": null, "activation": "linear", "bias_initializer": {"config": {"dtype": "float32"}, "class_name": "Zeros"}, "padding": "same", "kernel_constraint": null, "filters": 728, "depth_multiplier": 1, "activity_regularizer": null, "kernel_size": [3, 3], "pointwise_initializer": {"config": {"seed": null, "dtype": "float32"}, "class_name": "GlorotUniform"}, "dtype": "float32", "dilation_rate": [1, 1], "trainable": true, "kernel_initializer": {"config": {"seed": null, "dtype": "float32"}, "class_name": "GlorotUniform"}, "pointwise_regularizer": null, "depthwise_initializer": {"config": {"seed": null, "dtype": "float32"}, "class_name": "GlorotUniform"}, "pointwise_constraint": null, "bias_regularizer": null, "data_format": "channels_last", "use_bias": false, "kernel_regularizer": null, "name": "block8_sepconv2", "depthwise_constraint": null, "strides": [1, 1], "depthwise_regularizer": null}, "name": "block8_sepconv2", "class_name": "SeparableConv2D", "inbound_nodes": [[["block8_sepconv2_act", 0, 0, {}]]]}, {"config": {"beta_initializer": {"config": {"dtype": "float32"}, "class_name": "Zeros"}, "moving_mean_initializer": {"config": {"dtype": "float32"}, "class_name": "Zeros"}, "gamma_initializer": {"config": {"dtype": "float32"}, "class_name": "Ones"}, "trainable": true, "axis": [3], "epsilon": 0.001, "gamma_regularizer": null, "beta_regularizer": null, "gamma_constraint": null, "moving_variance_initializer": {"config": {"dtype": "float32"}, "class_name": "Ones"}, "momentum": 0.99, "name": "block8_sepconv2_bn", "beta_constraint": null, "dtype": "float32", "scale": true, "center": true}, "name": "block8_sepconv2_bn", "class_name": "BatchNormalization", "inbound_nodes": [[["block8_sepconv2", 0, 0, {}]]]}, {"config": {"activation": "relu", "name": "block8_sepconv3_act", "trainable": true, "dtype": "float32"}, "name": "block8_sepconv3_act", "class_name": "Activation", "inbound_nodes": [[["block8_sepconv2_bn", 0, 0, {}]]]}, {"config": {"bias_constraint": null, "activation": "linear", "bias_initializer": {"config": {"dtype": "float32"}, "class_name": "Zeros"}, "padding": "same", "kernel_constraint": null, "filters": 728, "depth_multiplier": 1, "activity_regularizer": null, "kernel_size": [3, 3], "pointwise_initializer": {"config": {"seed": null, "dtype": "float32"}, "class_name": "GlorotUniform"}, "dtype": "float32", "dilation_rate": [1, 1], "trainable": true, "kernel_initializer": {"config": {"seed": null, "dtype": "float32"}, "class_name": "GlorotUniform"}, "pointwise_regularizer": null, "depthwise_initializer": {"config": {"seed": null, "dtype": "float32"}, "class_name": "GlorotUniform"}, "pointwise_constraint": null, "bias_regularizer": null, "data_format": "channels_last", "use_bias": false, "kernel_regularizer": null, "name": "block8_sepconv3", "depthwise_constraint": null, "strides": [1, 1], "depthwise_regularizer": null}, "name": "block8_sepconv3", "class_name": "SeparableConv2D", "inbound_nodes": [[["block8_sepconv3_act", 0, 0, {}]]]}, {"config": {"beta_initializer": {"config": {"dtype": "float32"}, "class_name": "Zeros"}, "moving_mean_initializer": {"config": {"dtype": "float32"}, "class_name": "Zeros"}, "gamma_initializer": {"config": {"dtype": "float32"}, "class_name": "Ones"}, "trainable": true, "axis": [3], "epsilon": 0.001, "gamma_regularizer": null, "beta_regularizer": null, "gamma_constraint": null, "moving_variance_initializer": {"config": {"dtype": "float32"}, "class_name": "Ones"}, "momentum": 0.99, "name": "block8_sepconv3_bn", "beta_constraint": null, "dtype": "float32", "scale": true, "center": true}, "name": "block8_sepconv3_bn", "class_name": "BatchNormalization", "inbound_nodes": [[["block8_sepconv3", 0, 0, {}]]]}, {"config": {"name": "add_18", "trainable": true, "dtype": "float32"}, "name": "add_18", "class_name": "Add", "inbound_nodes": [[["block8_sepconv3_bn", 0, 0, {}], ["add_17", 0, 0, {}]]]}, {"config": {"activation": "relu", "name": "block9_sepconv1_act", "trainable": true, "dtype": "float32"}, "name": "block9_sepconv1_act", "class_name": "Activation", "inbound_nodes": [[["add_18", 0, 0, {}]]]}, {"config": {"bias_constraint": null, "activation": "linear", "bias_initializer": {"config": {"dtype": "float32"}, "class_name": "Zeros"}, "padding": "same", "kernel_constraint": null, "filters": 728, "depth_multiplier": 1, "activity_regularizer": null, "kernel_size": [3, 3], "pointwise_initializer": {"config": {"seed": null, "dtype": "float32"}, "class_name": "GlorotUniform"}, "dtype": "float32", "dilation_rate": [1, 1], "trainable": true, "kernel_initializer": {"config": {"seed": null, "dtype": "float32"}, "class_name": "GlorotUniform"}, "pointwise_regularizer": null, "depthwise_initializer": {"config": {"seed": null, "dtype": "float32"}, "class_name": "GlorotUniform"}, "pointwise_constraint": null, "bias_regularizer": null, "data_format": "channels_last", "use_bias": false, "kernel_regularizer": null, "name": "block9_sepconv1", "depthwise_constraint": null, "strides": [1, 1], "depthwise_regularizer": null}, "name": "block9_sepconv1", "class_name": "SeparableConv2D", "inbound_nodes": [[["block9_sepconv1_act", 0, 0, {}]]]}, {"config": {"beta_initializer": {"config": {"dtype": "float32"}, "class_name": "Zeros"}, "moving_mean_initializer": {"config": {"dtype": "float32"}, "class_name": "Zeros"}, "gamma_initializer": {"config": {"dtype": "float32"}, "class_name": "Ones"}, "trainable": true, "axis": [3], "epsilon": 0.001, "gamma_regularizer": null, "beta_regularizer": null, "gamma_constraint": null, "moving_variance_initializer": {"config": {"dtype": "float32"}, "class_name": "Ones"}, "momentum": 0.99, "name": "block9_sepconv1_bn", "beta_constraint": null, "dtype": "float32", "scale": true, "center": true}, "name": "block9_sepconv1_bn", "class_name": "BatchNormalization", "inbound_nodes": [[["block9_sepconv1", 0, 0, {}]]]}, {"config": {"activation": "relu", "name": "block9_sepconv2_act", "trainable": true, "dtype": "float32"}, "name": "block9_sepconv2_act", "class_name": "Activation", "inbound_nodes": [[["block9_sepconv1_bn", 0, 0, {}]]]}, {"config": {"bias_constraint": null, "activation": "linear", "bias_initializer": {"config": {"dtype": "float32"}, "class_name": "Zeros"}, "padding": "same", "kernel_constraint": null, "filters": 728, "depth_multiplier": 1, "activity_regularizer": null, "kernel_size": [3, 3], "pointwise_initializer": {"config": {"seed": null, "dtype": "float32"}, "class_name": "GlorotUniform"}, "dtype": "float32", "dilation_rate": [1, 1], "trainable": true, "kernel_initializer": {"config": {"seed": null, "dtype": "float32"}, "class_name": "GlorotUniform"}, "pointwise_regularizer": null, "depthwise_initializer": {"config": {"seed": null, "dtype": "float32"}, "class_name": "GlorotUniform"}, "pointwise_constraint": null, "bias_regularizer": null, "data_format": "channels_last", "use_bias": false, "kernel_regularizer": null, "name": "block9_sepconv2", "depthwise_constraint": null, "strides": [1, 1], "depthwise_regularizer": null}, "name": "block9_sepconv2", "class_name": "SeparableConv2D", "inbound_nodes": [[["block9_sepconv2_act", 0, 0, {}]]]}, {"config": {"beta_initializer": {"config": {"dtype": "float32"}, "class_name": "Zeros"}, "moving_mean_initializer": {"config": {"dtype": "float32"}, "class_name": "Zeros"}, "gamma_initializer": {"config": {"dtype": "float32"}, "class_name": "Ones"}, "trainable": true, "axis": [3], "epsilon": 0.001, "gamma_regularizer": null, "beta_regularizer": null, "gamma_constraint": null, "moving_variance_initializer": {"config": {"dtype": "float32"}, "class_name": "Ones"}, "momentum": 0.99, "name": "block9_sepconv2_bn", "beta_constraint": null, "dtype": "float32", "scale": true, "center": true}, "name": "block9_sepconv2_bn", "class_name": "BatchNormalization", "inbound_nodes": [[["block9_sepconv2", 0, 0, {}]]]}, {"config": {"activation": "relu", "name": "block9_sepconv3_act", "trainable": true, "dtype": "float32"}, "name": "block9_sepconv3_act", "class_name": "Activation", "inbound_nodes": [[["block9_sepconv2_bn", 0, 0, {}]]]}, {"config": {"bias_constraint": null, "activation": "linear", "bias_initializer": {"config": {"dtype": "float32"}, "class_name": "Zeros"}, "padding": "same", "kernel_constraint": null, "filters": 728, "depth_multiplier": 1, "activity_regularizer": null, "kernel_size": [3, 3], "pointwise_initializer": {"config": {"seed": null, "dtype": "float32"}, "class_name": "GlorotUniform"}, "dtype": "float32", "dilation_rate": [1, 1], "trainable": true, "kernel_initializer": {"config": {"seed": null, "dtype": "float32"}, "class_name": "GlorotUniform"}, "pointwise_regularizer": null, "depthwise_initializer": {"config": {"seed": null, "dtype": "float32"}, "class_name": "GlorotUniform"}, "pointwise_constraint": null, "bias_regularizer": null, "data_format": "channels_last", "use_bias": false, "kernel_regularizer": null, "name": "block9_sepconv3", "depthwise_constraint": null, "strides": [1, 1], "depthwise_regularizer": null}, "name": "block9_sepconv3", "class_name": "SeparableConv2D", "inbound_nodes": [[["block9_sepconv3_act", 0, 0, {}]]]}, {"config": {"beta_initializer": {"config": {"dtype": "float32"}, "class_name": "Zeros"}, "moving_mean_initializer": {"config": {"dtype": "float32"}, "class_name": "Zeros"}, "gamma_initializer": {"config": {"dtype": "float32"}, "class_name": "Ones"}, "trainable": true, "axis": [3], "epsilon": 0.001, "gamma_regularizer": null, "beta_regularizer": null, "gamma_constraint": null, "moving_variance_initializer": {"config": {"dtype": "float32"}, "class_name": "Ones"}, "momentum": 0.99, "name": "block9_sepconv3_bn", "beta_constraint": null, "dtype": "float32", "scale": true, "center": true}, "name": "block9_sepconv3_bn", "class_name": "BatchNormalization", "inbound_nodes": [[["block9_sepconv3", 0, 0, {}]]]}, {"config": {"name": "add_19", "trainable": true, "dtype": "float32"}, "name": "add_19", "class_name": "Add", "inbound_nodes": [[["block9_sepconv3_bn", 0, 0, {}], ["add_18", 0, 0, {}]]]}, {"config": {"activation": "relu", "name": "block10_sepconv1_act", "trainable": true, "dtype": "float32"}, "name": "block10_sepconv1_act", "class_name": "Activation", "inbound_nodes": [[["add_19", 0, 0, {}]]]}, {"config": {"bias_constraint": null, "activation": "linear", "bias_initializer": {"config": {"dtype": "float32"}, "class_name": "Zeros"}, "padding": "same", "kernel_constraint": null, "filters": 728, "depth_multiplier": 1, "activity_regularizer": null, "kernel_size": [3, 3], "pointwise_initializer": {"config": {"seed": null, "dtype": "float32"}, "class_name": "GlorotUniform"}, "dtype": "float32", "dilation_rate": [1, 1], "trainable": true, "kernel_initializer": {"config": {"seed": null, "dtype": "float32"}, "class_name": "GlorotUniform"}, "pointwise_regularizer": null, "depthwise_initializer": {"config": {"seed": null, "dtype": "float32"}, "class_name": "GlorotUniform"}, "pointwise_constraint": null, "bias_regularizer": null, "data_format": "channels_last", "use_bias": false, "kernel_regularizer": null, "name": "block10_sepconv1", "depthwise_constraint": null, "strides": [1, 1], "depthwise_regularizer": null}, "name": "block10_sepconv1", "class_name": "SeparableConv2D", "inbound_nodes": [[["block10_sepconv1_act", 0, 0, {}]]]}, {"config": {"beta_initializer": {"config": {"dtype": "float32"}, "class_name": "Zeros"}, "moving_mean_initializer": {"config": {"dtype": "float32"}, "class_name": "Zeros"}, "gamma_initializer": {"config": {"dtype": "float32"}, "class_name": "Ones"}, "trainable": true, "axis": [3], "epsilon": 0.001, "gamma_regularizer": null, "beta_regularizer": null, "gamma_constraint": null, "moving_variance_initializer": {"config": {"dtype": "float32"}, "class_name": "Ones"}, "momentum": 0.99, "name": "block10_sepconv1_bn", "beta_constraint": null, "dtype": "float32", "scale": true, "center": true}, "name": "block10_sepconv1_bn", "class_name": "BatchNormalization", "inbound_nodes": [[["block10_sepconv1", 0, 0, {}]]]}, {"config": {"activation": "relu", "name": "block10_sepconv2_act", "trainable": true, "dtype": "float32"}, "name": "block10_sepconv2_act", "class_name": "Activation", "inbound_nodes": [[["block10_sepconv1_bn", 0, 0, {}]]]}, {"config": {"bias_constraint": null, "activation": "linear", "bias_initializer": {"config": {"dtype": "float32"}, "class_name": "Zeros"}, "padding": "same", "kernel_constraint": null, "filters": 728, "depth_multiplier": 1, "activity_regularizer": null, "kernel_size": [3, 3], "pointwise_initializer": {"config": {"seed": null, "dtype": "float32"}, "class_name": "GlorotUniform"}, "dtype": "float32", "dilation_rate": [1, 1], "trainable": true, "kernel_initializer": {"config": {"seed": null, "dtype": "float32"}, "class_name": "GlorotUniform"}, "pointwise_regularizer": null, "depthwise_initializer": {"config": {"seed": null, "dtype": "float32"}, "class_name": "GlorotUniform"}, "pointwise_constraint": null, "bias_regularizer": null, "data_format": "channels_last", "use_bias": false, "kernel_regularizer": null, "name": "block10_sepconv2", "depthwise_constraint": null, "strides": [1, 1], "depthwise_regularizer": null}, "name": "block10_sepconv2", "class_name": "SeparableConv2D", "inbound_nodes": [[["block10_sepconv2_act", 0, 0, {}]]]}, {"config": {"beta_initializer": {"config": {"dtype": "float32"}, "class_name": "Zeros"}, "moving_mean_initializer": {"config": {"dtype": "float32"}, "class_name": "Zeros"}, "gamma_initializer": {"config": {"dtype": "float32"}, "class_name": "Ones"}, "trainable": true, "axis": [3], "epsilon": 0.001, "gamma_regularizer": null, "beta_regularizer": null, "gamma_constraint": null, "moving_variance_initializer": {"config": {"dtype": "float32"}, "class_name": "Ones"}, "momentum": 0.99, "name": "block10_sepconv2_bn", "beta_constraint": null, "dtype": "float32", "scale": true, "center": true}, "name": "block10_sepconv2_bn", "class_name": "BatchNormalization", "inbound_nodes": [[["block10_sepconv2", 0, 0, {}]]]}, {"config": {"activation": "relu", "name": "block10_sepconv3_act", "trainable": true, "dtype": "float32"}, "name": "block10_sepconv3_act", "class_name": "Activation", "inbound_nodes": [[["block10_sepconv2_bn", 0, 0, {}]]]}, {"config": {"bias_constraint": null, "activation": "linear", "bias_initializer": {"config": {"dtype": "float32"}, "class_name": "Zeros"}, "padding": "same", "kernel_constraint": null, "filters": 728, "depth_multiplier": 1, "activity_regularizer": null, "kernel_size": [3, 3], "pointwise_initializer": {"config": {"seed": null, "dtype": "float32"}, "class_name": "GlorotUniform"}, "dtype": "float32", "dilation_rate": [1, 1], "trainable": true, "kernel_initializer": {"config": {"seed": null, "dtype": "float32"}, "class_name": "GlorotUniform"}, "pointwise_regularizer": null, "depthwise_initializer": {"config": {"seed": null, "dtype": "float32"}, "class_name": "GlorotUniform"}, "pointwise_constraint": null, "bias_regularizer": null, "data_format": "channels_last", "use_bias": false, "kernel_regularizer": null, "name": "block10_sepconv3", "depthwise_constraint": null, "strides": [1, 1], "depthwise_regularizer": null}, "name": "block10_sepconv3", "class_name": "SeparableConv2D", "inbound_nodes": [[["block10_sepconv3_act", 0, 0, {}]]]}, {"config": {"beta_initializer": {"config": {"dtype": "float32"}, "class_name": "Zeros"}, "moving_mean_initializer": {"config": {"dtype": "float32"}, "class_name": "Zeros"}, "gamma_initializer": {"config": {"dtype": "float32"}, "class_name": "Ones"}, "trainable": true, "axis": [3], "epsilon": 0.001, "gamma_regularizer": null, "beta_regularizer": null, "gamma_constraint": null, "moving_variance_initializer": {"config": {"dtype": "float32"}, "class_name": "Ones"}, "momentum": 0.99, "name": "block10_sepconv3_bn", "beta_constraint": null, "dtype": "float32", "scale": true, "center": true}, "name": "block10_sepconv3_bn", "class_name": "BatchNormalization", "inbound_nodes": [[["block10_sepconv3", 0, 0, {}]]]}, {"config": {"name": "add_20", "trainable": true, "dtype": "float32"}, "name": "add_20", "class_name": "Add", "inbound_nodes": [[["block10_sepconv3_bn", 0, 0, {}], ["add_19", 0, 0, {}]]]}, {"config": {"activation": "relu", "name": "block11_sepconv1_act", "trainable": true, "dtype": "float32"}, "name": "block11_sepconv1_act", "class_name": "Activation", "inbound_nodes": [[["add_20", 0, 0, {}]]]}, {"config": {"bias_constraint": null, "activation": "linear", "bias_initializer": {"config": {"dtype": "float32"}, "class_name": "Zeros"}, "padding": "same", "kernel_constraint": null, "filters": 728, "depth_multiplier": 1, "activity_regularizer": null, "kernel_size": [3, 3], "pointwise_initializer": {"config": {"seed": null, "dtype": "float32"}, "class_name": "GlorotUniform"}, "dtype": "float32", "dilation_rate": [1, 1], "trainable": true, "kernel_initializer": {"config": {"seed": null, "dtype": "float32"}, "class_name": "GlorotUniform"}, "pointwise_regularizer": null, "depthwise_initializer": {"config": {"seed": null, "dtype": "float32"}, "class_name": "GlorotUniform"}, "pointwise_constraint": null, "bias_regularizer": null, "data_format": "channels_last", "use_bias": false, "kernel_regularizer": null, "name": "block11_sepconv1", "depthwise_constraint": null, "strides": [1, 1], "depthwise_regularizer": null}, "name": "block11_sepconv1", "class_name": "SeparableConv2D", "inbound_nodes": [[["block11_sepconv1_act", 0, 0, {}]]]}, {"config": {"beta_initializer": {"config": {"dtype": "float32"}, "class_name": "Zeros"}, "moving_mean_initializer": {"config": {"dtype": "float32"}, "class_name": "Zeros"}, "gamma_initializer": {"config": {"dtype": "float32"}, "class_name": "Ones"}, "trainable": true, "axis": [3], "epsilon": 0.001, "gamma_regularizer": null, "beta_regularizer": null, "gamma_constraint": null, "moving_variance_initializer": {"config": {"dtype": "float32"}, "class_name": "Ones"}, "momentum": 0.99, "name": "block11_sepconv1_bn", "beta_constraint": null, "dtype": "float32", "scale": true, "center": true}, "name": "block11_sepconv1_bn", "class_name": "BatchNormalization", "inbound_nodes": [[["block11_sepconv1", 0, 0, {}]]]}, {"config": {"activation": "relu", "name": "block11_sepconv2_act", "trainable": true, "dtype": "float32"}, "name": "block11_sepconv2_act", "class_name": "Activation", "inbound_nodes": [[["block11_sepconv1_bn", 0, 0, {}]]]}, {"config": {"bias_constraint": null, "activation": "linear", "bias_initializer": {"config": {"dtype": "float32"}, "class_name": "Zeros"}, "padding": "same", "kernel_constraint": null, "filters": 728, "depth_multiplier": 1, "activity_regularizer": null, "kernel_size": [3, 3], "pointwise_initializer": {"config": {"seed": null, "dtype": "float32"}, "class_name": "GlorotUniform"}, "dtype": "float32", "dilation_rate": [1, 1], "trainable": true, "kernel_initializer": {"config": {"seed": null, "dtype": "float32"}, "class_name": "GlorotUniform"}, "pointwise_regularizer": null, "depthwise_initializer": {"config": {"seed": null, "dtype": "float32"}, "class_name": "GlorotUniform"}, "pointwise_constraint": null, "bias_regularizer": null, "data_format": "channels_last", "use_bias": false, "kernel_regularizer": null, "name": "block11_sepconv2", "depthwise_constraint": null, "strides": [1, 1], "depthwise_regularizer": null}, "name": "block11_sepconv2", "class_name": "SeparableConv2D", "inbound_nodes": [[["block11_sepconv2_act", 0, 0, {}]]]}, {"config": {"beta_initializer": {"config": {"dtype": "float32"}, "class_name": "Zeros"}, "moving_mean_initializer": {"config": {"dtype": "float32"}, "class_name": "Zeros"}, "gamma_initializer": {"config": {"dtype": "float32"}, "class_name": "Ones"}, "trainable": true, "axis": [3], "epsilon": 0.001, "gamma_regularizer": null, "beta_regularizer": null, "gamma_constraint": null, "moving_variance_initializer": {"config": {"dtype": "float32"}, "class_name": "Ones"}, "momentum": 0.99, "name": "block11_sepconv2_bn", "beta_constraint": null, "dtype": "float32", "scale": true, "center": true}, "name": "block11_sepconv2_bn", "class_name": "BatchNormalization", "inbound_nodes": [[["block11_sepconv2", 0, 0, {}]]]}, {"config": {"activation": "relu", "name": "block11_sepconv3_act", "trainable": true, "dtype": "float32"}, "name": "block11_sepconv3_act", "class_name": "Activation", "inbound_nodes": [[["block11_sepconv2_bn", 0, 0, {}]]]}, {"config": {"bias_constraint": null, "activation": "linear", "bias_initializer": {"config": {"dtype": "float32"}, "class_name": "Zeros"}, "padding": "same", "kernel_constraint": null, "filters": 728, "depth_multiplier": 1, "activity_regularizer": null, "kernel_size": [3, 3], "pointwise_initializer": {"config": {"seed": null, "dtype": "float32"}, "class_name": "GlorotUniform"}, "dtype": "float32", "dilation_rate": [1, 1], "trainable": true, "kernel_initializer": {"config": {"seed": null, "dtype": "float32"}, "class_name": "GlorotUniform"}, "pointwise_regularizer": null, "depthwise_initializer": {"config": {"seed": null, "dtype": "float32"}, "class_name": "GlorotUniform"}, "pointwise_constraint": null, "bias_regularizer": null, "data_format": "channels_last", "use_bias": false, "kernel_regularizer": null, "name": "block11_sepconv3", "depthwise_constraint": null, "strides": [1, 1], "depthwise_regularizer": null}, "name": "block11_sepconv3", "class_name": "SeparableConv2D", "inbound_nodes": [[["block11_sepconv3_act", 0, 0, {}]]]}, {"config": {"beta_initializer": {"config": {"dtype": "float32"}, "class_name": "Zeros"}, "moving_mean_initializer": {"config": {"dtype": "float32"}, "class_name": "Zeros"}, "gamma_initializer": {"config": {"dtype": "float32"}, "class_name": "Ones"}, "trainable": true, "axis": [3], "epsilon": 0.001, "gamma_regularizer": null, "beta_regularizer": null, "gamma_constraint": null, "moving_variance_initializer": {"config": {"dtype": "float32"}, "class_name": "Ones"}, "momentum": 0.99, "name": "block11_sepconv3_bn", "beta_constraint": null, "dtype": "float32", "scale": true, "center": true}, "name": "block11_sepconv3_bn", "class_name": "BatchNormalization", "inbound_nodes": [[["block11_sepconv3", 0, 0, {}]]]}, {"config": {"name": "add_21", "trainable": true, "dtype": "float32"}, "name": "add_21", "class_name": "Add", "inbound_nodes": [[["block11_sepconv3_bn", 0, 0, {}], ["add_20", 0, 0, {}]]]}, {"config": {"activation": "relu", "name": "block12_sepconv1_act", "trainable": true, "dtype": "float32"}, "name": "block12_sepconv1_act", "class_name": "Activation", "inbound_nodes": [[["add_21", 0, 0, {}]]]}, {"config": {"bias_constraint": null, "activation": "linear", "bias_initializer": {"config": {"dtype": "float32"}, "class_name": "Zeros"}, "padding": "same", "kernel_constraint": null, "filters": 728, "depth_multiplier": 1, "activity_regularizer": null, "kernel_size": [3, 3], "pointwise_initializer": {"config": {"seed": null, "dtype": "float32"}, "class_name": "GlorotUniform"}, "dtype": "float32", "dilation_rate": [1, 1], "trainable": true, "kernel_initializer": {"config": {"seed": null, "dtype": "float32"}, "class_name": "GlorotUniform"}, "pointwise_regularizer": null, "depthwise_initializer": {"config": {"seed": null, "dtype": "float32"}, "class_name": "GlorotUniform"}, "pointwise_constraint": null, "bias_regularizer": null, "data_format": "channels_last", "use_bias": false, "kernel_regularizer": null, "name": "block12_sepconv1", "depthwise_constraint": null, "strides": [1, 1], "depthwise_regularizer": null}, "name": "block12_sepconv1", "class_name": "SeparableConv2D", "inbound_nodes": [[["block12_sepconv1_act", 0, 0, {}]]]}, {"config": {"beta_initializer": {"config": {"dtype": "float32"}, "class_name": "Zeros"}, "moving_mean_initializer": {"config": {"dtype": "float32"}, "class_name": "Zeros"}, "gamma_initializer": {"config": {"dtype": "float32"}, "class_name": "Ones"}, "trainable": true, "axis": [3], "epsilon": 0.001, "gamma_regularizer": null, "beta_regularizer": null, "gamma_constraint": null, "moving_variance_initializer": {"config": {"dtype": "float32"}, "class_name": "Ones"}, "momentum": 0.99, "name": "block12_sepconv1_bn", "beta_constraint": null, "dtype": "float32", "scale": true, "center": true}, "name": "block12_sepconv1_bn", "class_name": "BatchNormalization", "inbound_nodes": [[["block12_sepconv1", 0, 0, {}]]]}, {"config": {"activation": "relu", "name": "block12_sepconv2_act", "trainable": true, "dtype": "float32"}, "name": "block12_sepconv2_act", "class_name": "Activation", "inbound_nodes": [[["block12_sepconv1_bn", 0, 0, {}]]]}, {"config": {"bias_constraint": null, "activation": "linear", "bias_initializer": {"config": {"dtype": "float32"}, "class_name": "Zeros"}, "padding": "same", "kernel_constraint": null, "filters": 728, "depth_multiplier": 1, "activity_regularizer": null, "kernel_size": [3, 3], "pointwise_initializer": {"config": {"seed": null, "dtype": "float32"}, "class_name": "GlorotUniform"}, "dtype": "float32", "dilation_rate": [1, 1], "trainable": true, "kernel_initializer": {"config": {"seed": null, "dtype": "float32"}, "class_name": "GlorotUniform"}, "pointwise_regularizer": null, "depthwise_initializer": {"config": {"seed": null, "dtype": "float32"}, "class_name": "GlorotUniform"}, "pointwise_constraint": null, "bias_regularizer": null, "data_format": "channels_last", "use_bias": false, "kernel_regularizer": null, "name": "block12_sepconv2", "depthwise_constraint": null, "strides": [1, 1], "depthwise_regularizer": null}, "name": "block12_sepconv2", "class_name": "SeparableConv2D", "inbound_nodes": [[["block12_sepconv2_act", 0, 0, {}]]]}, {"config": {"beta_initializer": {"config": {"dtype": "float32"}, "class_name": "Zeros"}, "moving_mean_initializer": {"config": {"dtype": "float32"}, "class_name": "Zeros"}, "gamma_initializer": {"config": {"dtype": "float32"}, "class_name": "Ones"}, "trainable": true, "axis": [3], "epsilon": 0.001, "gamma_regularizer": null, "beta_regularizer": null, "gamma_constraint": null, "moving_variance_initializer": {"config": {"dtype": "float32"}, "class_name": "Ones"}, "momentum": 0.99, "name": "block12_sepconv2_bn", "beta_constraint": null, "dtype": "float32", "scale": true, "center": true}, "name": "block12_sepconv2_bn", "class_name": "BatchNormalization", "inbound_nodes": [[["block12_sepconv2", 0, 0, {}]]]}, {"config": {"activation": "relu", "name": "block12_sepconv3_act", "trainable": true, "dtype": "float32"}, "name": "block12_sepconv3_act", "class_name": "Activation", "inbound_nodes": [[["block12_sepconv2_bn", 0, 0, {}]]]}, {"config": {"bias_constraint": null, "activation": "linear", "bias_initializer": {"config": {"dtype": "float32"}, "class_name": "Zeros"}, "padding": "same", "kernel_constraint": null, "filters": 728, "depth_multiplier": 1, "activity_regularizer": null, "kernel_size": [3, 3], "pointwise_initializer": {"config": {"seed": null, "dtype": "float32"}, "class_name": "GlorotUniform"}, "dtype": "float32", "dilation_rate": [1, 1], "trainable": true, "kernel_initializer": {"config": {"seed": null, "dtype": "float32"}, "class_name": "GlorotUniform"}, "pointwise_regularizer": null, "depthwise_initializer": {"config": {"seed": null, "dtype": "float32"}, "class_name": "GlorotUniform"}, "pointwise_constraint": null, "bias_regularizer": null, "data_format": "channels_last", "use_bias": false, "kernel_regularizer": null, "name": "block12_sepconv3", "depthwise_constraint": null, "strides": [1, 1], "depthwise_regularizer": null}, "name": "block12_sepconv3", "class_name": "SeparableConv2D", "inbound_nodes": [[["block12_sepconv3_act", 0, 0, {}]]]}, {"config": {"beta_initializer": {"config": {"dtype": "float32"}, "class_name": "Zeros"}, "moving_mean_initializer": {"config": {"dtype": "float32"}, "class_name": "Zeros"}, "gamma_initializer": {"config": {"dtype": "float32"}, "class_name": "Ones"}, "trainable": true, "axis": [3], "epsilon": 0.001, "gamma_regularizer": null, "beta_regularizer": null, "gamma_constraint": null, "moving_variance_initializer": {"config": {"dtype": "float32"}, "class_name": "Ones"}, "momentum": 0.99, "name": "block12_sepconv3_bn", "beta_constraint": null, "dtype": "float32", "scale": true, "center": true}, "name": "block12_sepconv3_bn", "class_name": "BatchNormalization", "inbound_nodes": [[["block12_sepconv3", 0, 0, {}]]]}, {"config": {"name": "add_22", "trainable": true, "dtype": "float32"}, "name": "add_22", "class_name": "Add", "inbound_nodes": [[["block12_sepconv3_bn", 0, 0, {}], ["add_21", 0, 0, {}]]]}, {"config": {"activation": "relu", "name": "block13_sepconv1_act", "trainable": true, "dtype": "float32"}, "name": "block13_sepconv1_act", "class_name": "Activation", "inbound_nodes": [[["add_22", 0, 0, {}]]]}, {"config": {"bias_constraint": null, "activation": "linear", "bias_initializer": {"config": {"dtype": "float32"}, "class_name": "Zeros"}, "padding": "same", "kernel_constraint": null, "filters": 728, "depth_multiplier": 1, "activity_regularizer": null, "kernel_size": [3, 3], "pointwise_initializer": {"config": {"seed": null, "dtype": "float32"}, "class_name": "GlorotUniform"}, "dtype": "float32", "dilation_rate": [1, 1], "trainable": true, "kernel_initializer": {"config": {"seed": null, "dtype": "float32"}, "class_name": "GlorotUniform"}, "pointwise_regularizer": null, "depthwise_initializer": {"config": {"seed": null, "dtype": "float32"}, "class_name": "GlorotUniform"}, "pointwise_constraint": null, "bias_regularizer": null, "data_format": "channels_last", "use_bias": false, "kernel_regularizer": null, "name": "block13_sepconv1", "depthwise_constraint": null, "strides": [1, 1], "depthwise_regularizer": null}, "name": "block13_sepconv1", "class_name": "SeparableConv2D", "inbound_nodes": [[["block13_sepconv1_act", 0, 0, {}]]]}, {"config": {"beta_initializer": {"config": {"dtype": "float32"}, "class_name": "Zeros"}, "moving_mean_initializer": {"config": {"dtype": "float32"}, "class_name": "Zeros"}, "gamma_initializer": {"config": {"dtype": "float32"}, "class_name": "Ones"}, "trainable": true, "axis": [3], "epsilon": 0.001, "gamma_regularizer": null, "beta_regularizer": null, "gamma_constraint": null, "moving_variance_initializer": {"config": {"dtype": "float32"}, "class_name": "Ones"}, "momentum": 0.99, "name": "block13_sepconv1_bn", "beta_constraint": null, "dtype": "float32", "scale": true, "center": true}, "name": "block13_sepconv1_bn", "class_name": "BatchNormalization", "inbound_nodes": [[["block13_sepconv1", 0, 0, {}]]]}, {"config": {"activation": "relu", "name": "block13_sepconv2_act", "trainable": true, "dtype": "float32"}, "name": "block13_sepconv2_act", "class_name": "Activation", "inbound_nodes": [[["block13_sepconv1_bn", 0, 0, {}]]]}, {"config": {"bias_constraint": null, "activation": "linear", "bias_initializer": {"config": {"dtype": "float32"}, "class_name": "Zeros"}, "padding": "same", "kernel_constraint": null, "filters": 1024, "depth_multiplier": 1, "activity_regularizer": null, "kernel_size": [3, 3], "pointwise_initializer": {"config": {"seed": null, "dtype": "float32"}, "class_name": "GlorotUniform"}, "dtype": "float32", "dilation_rate": [1, 1], "trainable": true, "kernel_initializer": {"config": {"seed": null, "dtype": "float32"}, "class_name": "GlorotUniform"}, "pointwise_regularizer": null, "depthwise_initializer": {"config": {"seed": null, "dtype": "float32"}, "class_name": "GlorotUniform"}, "pointwise_constraint": null, "bias_regularizer": null, "data_format": "channels_last", "use_bias": false, "kernel_regularizer": null, "name": "block13_sepconv2", "depthwise_constraint": null, "strides": [1, 1], "depthwise_regularizer": null}, "name": "block13_sepconv2", "class_name": "SeparableConv2D", "inbound_nodes": [[["block13_sepconv2_act", 0, 0, {}]]]}, {"config": {"beta_initializer": {"config": {"dtype": "float32"}, "class_name": "Zeros"}, "moving_mean_initializer": {"config": {"dtype": "float32"}, "class_name": "Zeros"}, "gamma_initializer": {"config": {"dtype": "float32"}, "class_name": "Ones"}, "trainable": true, "axis": [3], "epsilon": 0.001, "gamma_regularizer": null, "beta_regularizer": null, "gamma_constraint": null, "moving_variance_initializer": {"config": {"dtype": "float32"}, "class_name": "Ones"}, "momentum": 0.99, "name": "block13_sepconv2_bn", "beta_constraint": null, "dtype": "float32", "scale": true, "center": true}, "name": "block13_sepconv2_bn", "class_name": "BatchNormalization", "inbound_nodes": [[["block13_sepconv2", 0, 0, {}]]]}, {"config": {"dilation_rate": [1, 1], "activation": "linear", "trainable": true, "kernel_initializer": {"config": {"seed": null, "dtype": "float32"}, "class_name": "GlorotUniform"}, "bias_initializer": {"config": {"dtype": "float32"}, "class_name": "Zeros"}, "padding": "same", "kernel_constraint": null, "filters": 1024, "data_format": "channels_last", "activity_regularizer": null, "use_bias": false, "bias_regularizer": null, "kernel_size": [1, 1], "kernel_regularizer": null, "name": "conv2d_7", "strides": [2, 2], "dtype": "float32", "bias_constraint": null}, "name": "conv2d_7", "class_name": "Conv2D", "inbound_nodes": [[["add_22", 0, 0, {}]]]}, {"config": {"padding": "same", "trainable": true, "dtype": "float32", "name": "block13_pool", "strides": [2, 2], "pool_size": [3, 3], "data_format": "channels_last"}, "name": "block13_pool", "class_name": "MaxPooling2D", "inbound_nodes": [[["block13_sepconv2_bn", 0, 0, {}]]]}, {"config": {"beta_initializer": {"config": {"dtype": "float32"}, "class_name": "Zeros"}, "moving_mean_initializer": {"config": {"dtype": "float32"}, "class_name": "Zeros"}, "gamma_initializer": {"config": {"dtype": "float32"}, "class_name": "Ones"}, "trainable": true, "axis": [3], "epsilon": 0.001, "gamma_regularizer": null, "beta_regularizer": null, "gamma_constraint": null, "moving_variance_initializer": {"config": {"dtype": "float32"}, "class_name": "Ones"}, "momentum": 0.99, "name": "batch_normalization_7", "beta_constraint": null, "dtype": "float32", "scale": true, "center": true}, "name": "batch_normalization_7", "class_name": "BatchNormalization", "inbound_nodes": [[["conv2d_7", 0, 0, {}]]]}, {"config": {"name": "add_23", "trainable": true, "dtype": "float32"}, "name": "add_23", "class_name": "Add", "inbound_nodes": [[["block13_pool", 0, 0, {}], ["batch_normalization_7", 0, 0, {}]]]}, {"config": {"bias_constraint": null, "activation": "linear", "bias_initializer": {"config": {"dtype": "float32"}, "class_name": "Zeros"}, "padding": "same", "kernel_constraint": null, "filters": 1536, "depth_multiplier": 1, "activity_regularizer": null, "kernel_size": [3, 3], "pointwise_initializer": {"config": {"seed": null, "dtype": "float32"}, "class_name": "GlorotUniform"}, "dtype": "float32", "dilation_rate": [1, 1], "trainable": true, "kernel_initializer": {"config": {"seed": null, "dtype": "float32"}, "class_name": "GlorotUniform"}, "pointwise_regularizer": null, "depthwise_initializer": {"config": {"seed": null, "dtype": "float32"}, "class_name": "GlorotUniform"}, "pointwise_constraint": null, "bias_regularizer": null, "data_format": "channels_last", "use_bias": false, "kernel_regularizer": null, "name": "block14_sepconv1", "depthwise_constraint": null, "strides": [1, 1], "depthwise_regularizer": null}, "name": "block14_sepconv1", "class_name": "SeparableConv2D", "inbound_nodes": [[["add_23", 0, 0, {}]]]}, {"config": {"beta_initializer": {"config": {"dtype": "float32"}, "class_name": "Zeros"}, "moving_mean_initializer": {"config": {"dtype": "float32"}, "class_name": "Zeros"}, "gamma_initializer": {"config": {"dtype": "float32"}, "class_name": "Ones"}, "trainable": true, "axis": [3], "epsilon": 0.001, "gamma_regularizer": null, "beta_regularizer": null, "gamma_constraint": null, "moving_variance_initializer": {"config": {"dtype": "float32"}, "class_name": "Ones"}, "momentum": 0.99, "name": "block14_sepconv1_bn", "beta_constraint": null, "dtype": "float32", "scale": true, "center": true}, "name": "block14_sepconv1_bn", "class_name": "BatchNormalization", "inbound_nodes": [[["block14_sepconv1", 0, 0, {}]]]}, {"config": {"activation": "relu", "name": "block14_sepconv1_act", "trainable": true, "dtype": "float32"}, "name": "block14_sepconv1_act", "class_name": "Activation", "inbound_nodes": [[["block14_sepconv1_bn", 0, 0, {}]]]}, {"config": {"bias_constraint": null, "activation": "linear", "bias_initializer": {"config": {"dtype": "float32"}, "class_name": "Zeros"}, "padding": "same", "kernel_constraint": null, "filters": 2048, "depth_multiplier": 1, "activity_regularizer": null, "kernel_size": [3, 3], "pointwise_initializer": {"config": {"seed": null, "dtype": "float32"}, "class_name": "GlorotUniform"}, "dtype": "float32", "dilation_rate": [1, 1], "trainable": true, "kernel_initializer": {"config": {"seed": null, "dtype": "float32"}, "class_name": "GlorotUniform"}, "pointwise_regularizer": null, "depthwise_initializer": {"config": {"seed": null, "dtype": "float32"}, "class_name": "GlorotUniform"}, "pointwise_constraint": null, "bias_regularizer": null, "data_format": "channels_last", "use_bias": false, "kernel_regularizer": null, "name": "block14_sepconv2", "depthwise_constraint": null, "strides": [1, 1], "depthwise_regularizer": null}, "name": "block14_sepconv2", "class_name": "SeparableConv2D", "inbound_nodes": [[["block14_sepconv1_act", 0, 0, {}]]]}, {"config": {"beta_initializer": {"config": {"dtype": "float32"}, "class_name": "Zeros"}, "moving_mean_initializer": {"config": {"dtype": "float32"}, "class_name": "Zeros"}, "gamma_initializer": {"config": {"dtype": "float32"}, "class_name": "Ones"}, "trainable": true, "axis": [3], "epsilon": 0.001, "gamma_regularizer": null, "beta_regularizer": null, "gamma_constraint": null, "moving_variance_initializer": {"config": {"dtype": "float32"}, "class_name": "Ones"}, "momentum": 0.99, "name": "block14_sepconv2_bn", "beta_constraint": null, "dtype": "float32", "scale": true, "center": true}, "name": "block14_sepconv2_bn", "class_name": "BatchNormalization", "inbound_nodes": [[["block14_sepconv2", 0, 0, {}]]]}, {"config": {"activation": "relu", "name": "block14_sepconv2_act", "trainable": true, "dtype": "float32"}, "name": "block14_sepconv2_act", "class_name": "Activation", "inbound_nodes": [[["block14_sepconv2_bn", 0, 0, {}]]]}, {"config": {"name": "global_average_pooling2d_2", "dtype": "float32", "trainable": true, "data_format": "channels_last"}, "name": "global_average_pooling2d_2", "class_name": "GlobalAveragePooling2D", "inbound_nodes": [[["block14_sepconv2_act", 0, 0, {}]]]}, {"config": {"bias_constraint": null, "activation": "relu", "trainable": true, "kernel_initializer": {"config": {"seed": null, "dtype": "float32"}, "class_name": "GlorotUniform"}, "bias_initializer": {"config": {"dtype": "float32"}, "class_name": "Zeros"}, "units": 128, "bias_regularizer": null, "activity_regularizer": null, "use_bias": true, "kernel_constraint": null, "kernel_regularizer": null, "name": "dense_6", "dtype": "float32"}, "name": "dense_6", "class_name": "Dense", "inbound_nodes": [[["global_average_pooling2d_2", 0, 0, {}]]]}, {"config": {"bias_constraint": null, "activation": "relu", "trainable": true, "kernel_initializer": {"config": {"seed": null, "dtype": "float32"}, "class_name": "GlorotUniform"}, "bias_initializer": {"config": {"dtype": "float32"}, "class_name": "Zeros"}, "units": 64, "bias_regularizer": null, "activity_regularizer": null, "use_bias": true, "kernel_constraint": null, "kernel_regularizer": null, "name": "dense_7", "dtype": "float32"}, "name": "dense_7", "class_name": "Dense", "inbound_nodes": [[["dense_6", 0, 0, {}]]]}, {"config": {"bias_constraint": null, "activation": "softmax", "trainable": true, "kernel_initializer": {"config": {"seed": null, "dtype": "float32"}, "class_name": "GlorotUniform"}, "bias_initializer": {"config": {"dtype": "float32"}, "class_name": "Zeros"}, "units": 3, "bias_regularizer": null, "activity_regularizer": null, "use_bias": true, "kernel_constraint": null, "kernel_regularizer": null, "name": "dense_8", "dtype": "float32"}, "name": "dense_8", "class_name": "Dense", "inbound_nodes": [[["dense_7", 0, 0, {}]]]}], "output_layers": [["dense_8", 0, 0]]}, "class_name": "Model"}, "training_config": {"loss": "categorical_crossentropy", "metrics": ["accuracy", "categorical_accuracy", "top_1_accuracy", "top_2_accuracy"], "loss_weights": null, "weighted_metrics": null, "optimizer_config": {"config": {"rho": 0.8999999761581421, "centered": false, "momentum": 0.0, "epsilon": 1e-07, "learning_rate": 9.999999747378752e-06, "name": "RMSprop", "decay": 0.0}, "class_name": "RMSprop"}, "sample_weight_mode": null}}, "weightsManifest": [{"paths": ["group1-shard1of21.bin", "group1-shard2of21.bin", "group1-shard3of21.bin", "group1-shard4of21.bin", "group1-shard5of21.bin", "group1-shard6of21.bin", "group1-shard7of21.bin", "group1-shard8of21.bin", "group1-shard9of21.bin", "group1-shard10of21.bin", "group1-shard11of21.bin", "group1-shard12of21.bin", "group1-shard13of21.bin", "group1-shard14of21.bin", "group1-shard15of21.bin", "group1-shard16of21.bin", "group1-shard17of21.bin", "group1-shard18of21.bin", "group1-shard19of21.bin", "group1-shard20of21.bin", "group1-shard21of21.bin"], "weights": [{"name": "batch_normalization_4/gamma", "shape": [128], "dtype": "float32"}, {"name": "batch_normalization_4/beta", "shape": [128], "dtype": "float32"}, {"name": "batch_normalization_4/moving_mean", "shape": [128], "dtype": "float32"}, {"name": "batch_normalization_4/moving_variance", "shape": [128], "dtype": "float32"}, {"name": "batch_normalization_5/gamma", "shape": [256], "dtype": "float32"}, {"name": "batch_normalization_5/beta", "shape": [256], "dtype": "float32"}, {"name": "batch_normalization_5/moving_mean", "shape": [256], "dtype": "float32"}, {"name": "batch_normalization_5/moving_variance", "shape": [256], "dtype": "float32"}, {"name": "batch_normalization_6/gamma", "shape": [728], "dtype": "float32"}, {"name": "batch_normalization_6/beta", "shape": [728], "dtype": "float32"}, {"name": "batch_normalization_6/moving_mean", "shape": [728], "dtype": "float32"}, {"name": "batch_normalization_6/moving_variance", "shape": [728], "dtype": "float32"}, {"name": "batch_normalization_7/gamma", "shape": [1024], "dtype": "float32"}, {"name": "batch_normalization_7/beta", "shape": [1024], "dtype": "float32"}, {"name": "batch_normalization_7/moving_mean", "shape": [1024], "dtype": "float32"}, {"name": "batch_normalization_7/moving_variance", "shape": [1024], "dtype": "float32"}, {"name": "block10_sepconv1_1/depthwise_kernel", "shape": [3, 3, 728, 1], "dtype": "float32"}, {"name": "block10_sepconv1_1/pointwise_kernel", "shape": [1, 1, 728, 728], "dtype": "float32"}, {"name": "block10_sepconv1_bn_1/gamma", "shape": [728], "dtype": "float32"}, {"name": "block10_sepconv1_bn_1/beta", "shape": [728], "dtype": "float32"}, {"name": "block10_sepconv1_bn_1/moving_mean", "shape": [728], "dtype": "float32"}, {"name": "block10_sepconv1_bn_1/moving_variance", "shape": [728], "dtype": "float32"}, {"name": "block10_sepconv2_1/depthwise_kernel", "shape": [3, 3, 728, 1], "dtype": "float32"}, {"name": "block10_sepconv2_1/pointwise_kernel", "shape": [1, 1, 728, 728], "dtype": "float32"}, {"name": "block10_sepconv2_bn_1/gamma", "shape": [728], "dtype": "float32"}, {"name": "block10_sepconv2_bn_1/beta", "shape": [728], "dtype": "float32"}, {"name": "block10_sepconv2_bn_1/moving_mean", "shape": [728], "dtype": "float32"}, {"name": "block10_sepconv2_bn_1/moving_variance", "shape": [728], "dtype": "float32"}, {"name": "block10_sepconv3_1/depthwise_kernel", "shape": [3, 3, 728, 1], "dtype": "float32"}, {"name": "block10_sepconv3_1/pointwise_kernel", "shape": [1, 1, 728, 728], "dtype": "float32"}, {"name": "block10_sepconv3_bn_1/gamma", "shape": [728], "dtype": "float32"}, {"name": "block10_sepconv3_bn_1/beta", "shape": [728], "dtype": "float32"}, {"name": "block10_sepconv3_bn_1/moving_mean", "shape": [728], "dtype": "float32"}, {"name": "block10_sepconv3_bn_1/moving_variance", "shape": [728], "dtype": "float32"}, {"name": "block11_sepconv1_1/depthwise_kernel", "shape": [3, 3, 728, 1], "dtype": "float32"}, {"name": "block11_sepconv1_1/pointwise_kernel", "shape": [1, 1, 728, 728], "dtype": "float32"}, {"name": "block11_sepconv1_bn_1/gamma", "shape": [728], "dtype": "float32"}, {"name": "block11_sepconv1_bn_1/beta", "shape": [728], "dtype": "float32"}, {"name": "block11_sepconv1_bn_1/moving_mean", "shape": [728], "dtype": "float32"}, {"name": "block11_sepconv1_bn_1/moving_variance", "shape": [728], "dtype": "float32"}, {"name": "block11_sepconv2_1/depthwise_kernel", "shape": [3, 3, 728, 1], "dtype": "float32"}, {"name": "block11_sepconv2_1/pointwise_kernel", "shape": [1, 1, 728, 728], "dtype": "float32"}, {"name": "block11_sepconv2_bn_1/gamma", "shape": [728], "dtype": "float32"}, {"name": "block11_sepconv2_bn_1/beta", "shape": [728], "dtype": "float32"}, {"name": "block11_sepconv2_bn_1/moving_mean", "shape": [728], "dtype": "float32"}, {"name": "block11_sepconv2_bn_1/moving_variance", "shape": [728], "dtype": "float32"}, {"name": "block11_sepconv3_1/depthwise_kernel", "shape": [3, 3, 728, 1], "dtype": "float32"}, {"name": "block11_sepconv3_1/pointwise_kernel", "shape": [1, 1, 728, 728], "dtype": "float32"}, {"name": "block11_sepconv3_bn_1/gamma", "shape": [728], "dtype": "float32"}, {"name": "block11_sepconv3_bn_1/beta", "shape": [728], "dtype": "float32"}, {"name": "block11_sepconv3_bn_1/moving_mean", "shape": [728], "dtype": "float32"}, {"name": "block11_sepconv3_bn_1/moving_variance", "shape": [728], "dtype": "float32"}, {"name": "block12_sepconv1_1/depthwise_kernel", "shape": [3, 3, 728, 1], "dtype": "float32"}, {"name": "block12_sepconv1_1/pointwise_kernel", "shape": [1, 1, 728, 728], "dtype": "float32"}, {"name": "block12_sepconv1_bn_1/gamma", "shape": [728], "dtype": "float32"}, {"name": "block12_sepconv1_bn_1/beta", "shape": [728], "dtype": "float32"}, {"name": "block12_sepconv1_bn_1/moving_mean", "shape": [728], "dtype": "float32"}, {"name": "block12_sepconv1_bn_1/moving_variance", "shape": [728], "dtype": "float32"}, {"name": "block12_sepconv2_1/depthwise_kernel", "shape": [3, 3, 728, 1], "dtype": "float32"}, {"name": "block12_sepconv2_1/pointwise_kernel", "shape": [1, 1, 728, 728], "dtype": "float32"}, {"name": "block12_sepconv2_bn_1/gamma", "shape": [728], "dtype": "float32"}, {"name": "block12_sepconv2_bn_1/beta", "shape": [728], "dtype": "float32"}, {"name": "block12_sepconv2_bn_1/moving_mean", "shape": [728], "dtype": "float32"}, {"name": "block12_sepconv2_bn_1/moving_variance", "shape": [728], "dtype": "float32"}, {"name": "block12_sepconv3_1/depthwise_kernel", "shape": [3, 3, 728, 1], "dtype": "float32"}, {"name": "block12_sepconv3_1/pointwise_kernel", "shape": [1, 1, 728, 728], "dtype": "float32"}, {"name": "block12_sepconv3_bn_1/gamma", "shape": [728], "dtype": "float32"}, {"name": "block12_sepconv3_bn_1/beta", "shape": [728], "dtype": "float32"}, {"name": "block12_sepconv3_bn_1/moving_mean", "shape": [728], "dtype": "float32"}, {"name": "block12_sepconv3_bn_1/moving_variance", "shape": [728], "dtype": "float32"}, {"name": "block13_sepconv1_1/depthwise_kernel", "shape": [3, 3, 728, 1], "dtype": "float32"}, {"name": "block13_sepconv1_1/pointwise_kernel", "shape": [1, 1, 728, 728], "dtype": "float32"}, {"name": "block13_sepconv1_bn_1/gamma", "shape": [728], "dtype": "float32"}, {"name": "block13_sepconv1_bn_1/beta", "shape": [728], "dtype": "float32"}, {"name": "block13_sepconv1_bn_1/moving_mean", "shape": [728], "dtype": "float32"}, {"name": "block13_sepconv1_bn_1/moving_variance", "shape": [728], "dtype": "float32"}, {"name": "block13_sepconv2_1/depthwise_kernel", "shape": [3, 3, 728, 1], "dtype": "float32"}, {"name": "block13_sepconv2_1/pointwise_kernel", "shape": [1, 1, 728, 1024], "dtype": "float32"}, {"name": "block13_sepconv2_bn_1/gamma", "shape": [1024], "dtype": "float32"}, {"name": "block13_sepconv2_bn_1/beta", "shape": [1024], "dtype": "float32"}, {"name": "block13_sepconv2_bn_1/moving_mean", "shape": [1024], "dtype": "float32"}, {"name": "block13_sepconv2_bn_1/moving_variance", "shape": [1024], "dtype": "float32"}, {"name": "block14_sepconv1_1/depthwise_kernel", "shape": [3, 3, 1024, 1], "dtype": "float32"}, {"name": "block14_sepconv1_1/pointwise_kernel", "shape": [1, 1, 1024, 1536], "dtype": "float32"}, {"name": "block14_sepconv1_bn_1/gamma", "shape": [1536], "dtype": "float32"}, {"name": "block14_sepconv1_bn_1/beta", "shape": [1536], "dtype": "float32"}, {"name": "block14_sepconv1_bn_1/moving_mean", "shape": [1536], "dtype": "float32"}, {"name": "block14_sepconv1_bn_1/moving_variance", "shape": [1536], "dtype": "float32"}, {"name": "block14_sepconv2_1/depthwise_kernel", "shape": [3, 3, 1536, 1], "dtype": "float32"}, {"name": "block14_sepconv2_1/pointwise_kernel", "shape": [1, 1, 1536, 2048], "dtype": "float32"}, {"name": "block14_sepconv2_bn_1/gamma", "shape": [2048], "dtype": "float32"}, {"name": "block14_sepconv2_bn_1/beta", "shape": [2048], "dtype": "float32"}, {"name": "block14_sepconv2_bn_1/moving_mean", "shape": [2048], "dtype": "float32"}, {"name": "block14_sepconv2_bn_1/moving_variance", "shape": [2048], "dtype": "float32"}, {"name": "block1_conv1_1/kernel", "shape": [3, 3, 3, 32], "dtype": "float32"}, {"name": "block1_conv1_bn_1/gamma", "shape": [32], "dtype": "float32"}, {"name": "block1_conv1_bn_1/beta", "shape": [32], "dtype": "float32"}, {"name": "block1_conv1_bn_1/moving_mean", "shape": [32], "dtype": "float32"}, {"name": "block1_conv1_bn_1/moving_variance", "shape": [32], "dtype": "float32"}, {"name": "block1_conv2_1/kernel", "shape": [3, 3, 32, 64], "dtype": "float32"}, {"name": "block1_conv2_bn_1/gamma", "shape": [64], "dtype": "float32"}, {"name": "block1_conv2_bn_1/beta", "shape": [64], "dtype": "float32"}, {"name": "block1_conv2_bn_1/moving_mean", "shape": [64], "dtype": "float32"}, {"name": "block1_conv2_bn_1/moving_variance", "shape": [64], "dtype": "float32"}, {"name": "block2_sepconv1_1/depthwise_kernel", "shape": [3, 3, 64, 1], "dtype": "float32"}, {"name": "block2_sepconv1_1/pointwise_kernel", "shape": [1, 1, 64, 128], "dtype": "float32"}, {"name": "block2_sepconv1_bn_1/gamma", "shape": [128], "dtype": "float32"}, {"name": "block2_sepconv1_bn_1/beta", "shape": [128], "dtype": "float32"}, {"name": "block2_sepconv1_bn_1/moving_mean", "shape": [128], "dtype": "float32"}, {"name": "block2_sepconv1_bn_1/moving_variance", "shape": [128], "dtype": "float32"}, {"name": "block2_sepconv2_1/depthwise_kernel", "shape": [3, 3, 128, 1], "dtype": "float32"}, {"name": "block2_sepconv2_1/pointwise_kernel", "shape": [1, 1, 128, 128], "dtype": "float32"}, {"name": "block2_sepconv2_bn_1/gamma", "shape": [128], "dtype": "float32"}, {"name": "block2_sepconv2_bn_1/beta", "shape": [128], "dtype": "float32"}, {"name": "block2_sepconv2_bn_1/moving_mean", "shape": [128], "dtype": "float32"}, {"name": "block2_sepconv2_bn_1/moving_variance", "shape": [128], "dtype": "float32"}, {"name": "block3_sepconv1_1/depthwise_kernel", "shape": [3, 3, 128, 1], "dtype": "float32"}, {"name": "block3_sepconv1_1/pointwise_kernel", "shape": [1, 1, 128, 256], "dtype": "float32"}, {"name": "block3_sepconv1_bn_1/gamma", "shape": [256], "dtype": "float32"}, {"name": "block3_sepconv1_bn_1/beta", "shape": [256], "dtype": "float32"}, {"name": "block3_sepconv1_bn_1/moving_mean", "shape": [256], "dtype": "float32"}, {"name": "block3_sepconv1_bn_1/moving_variance", "shape": [256], "dtype": "float32"}, {"name": "block3_sepconv2_1/depthwise_kernel", "shape": [3, 3, 256, 1], "dtype": "float32"}, {"name": "block3_sepconv2_1/pointwise_kernel", "shape": [1, 1, 256, 256], "dtype": "float32"}, {"name": "block3_sepconv2_bn_1/gamma", "shape": [256], "dtype": "float32"}, {"name": "block3_sepconv2_bn_1/beta", "shape": [256], "dtype": "float32"}, {"name": "block3_sepconv2_bn_1/moving_mean", "shape": [256], "dtype": "float32"}, {"name": "block3_sepconv2_bn_1/moving_variance", "shape": [256], "dtype": "float32"}, {"name": "block4_sepconv1_1/depthwise_kernel", "shape": [3, 3, 256, 1], "dtype": "float32"}, {"name": "block4_sepconv1_1/pointwise_kernel", "shape": [1, 1, 256, 728], "dtype": "float32"}, {"name": "block4_sepconv1_bn_1/gamma", "shape": [728], "dtype": "float32"}, {"name": "block4_sepconv1_bn_1/beta", "shape": [728], "dtype": "float32"}, {"name": "block4_sepconv1_bn_1/moving_mean", "shape": [728], "dtype": "float32"}, {"name": "block4_sepconv1_bn_1/moving_variance", "shape": [728], "dtype": "float32"}, {"name": "block4_sepconv2_1/depthwise_kernel", "shape": [3, 3, 728, 1], "dtype": "float32"}, {"name": "block4_sepconv2_1/pointwise_kernel", "shape": [1, 1, 728, 728], "dtype": "float32"}, {"name": "block4_sepconv2_bn_1/gamma", "shape": [728], "dtype": "float32"}, {"name": "block4_sepconv2_bn_1/beta", "shape": [728], "dtype": "float32"}, {"name": "block4_sepconv2_bn_1/moving_mean", "shape": [728], "dtype": "float32"}, {"name": "block4_sepconv2_bn_1/moving_variance", "shape": [728], "dtype": "float32"}, {"name": "block5_sepconv1_1/depthwise_kernel", "shape": [3, 3, 728, 1], "dtype": "float32"}, {"name": "block5_sepconv1_1/pointwise_kernel", "shape": [1, 1, 728, 728], "dtype": "float32"}, {"name": "block5_sepconv1_bn_1/gamma", "shape": [728], "dtype": "float32"}, {"name": "block5_sepconv1_bn_1/beta", "shape": [728], "dtype": "float32"}, {"name": "block5_sepconv1_bn_1/moving_mean", "shape": [728], "dtype": "float32"}, {"name": "block5_sepconv1_bn_1/moving_variance", "shape": [728], "dtype": "float32"}, {"name": "block5_sepconv2_1/depthwise_kernel", "shape": [3, 3, 728, 1], "dtype": "float32"}, {"name": "block5_sepconv2_1/pointwise_kernel", "shape": [1, 1, 728, 728], "dtype": "float32"}, {"name": "block5_sepconv2_bn_1/gamma", "shape": [728], "dtype": "float32"}, {"name": "block5_sepconv2_bn_1/beta", "shape": [728], "dtype": "float32"}, {"name": "block5_sepconv2_bn_1/moving_mean", "shape": [728], "dtype": "float32"}, {"name": "block5_sepconv2_bn_1/moving_variance", "shape": [728], "dtype": "float32"}, {"name": "block5_sepconv3_1/depthwise_kernel", "shape": [3, 3, 728, 1], "dtype": "float32"}, {"name": "block5_sepconv3_1/pointwise_kernel", "shape": [1, 1, 728, 728], "dtype": "float32"}, {"name": "block5_sepconv3_bn_1/gamma", "shape": [728], "dtype": "float32"}, {"name": "block5_sepconv3_bn_1/beta", "shape": [728], "dtype": "float32"}, {"name": "block5_sepconv3_bn_1/moving_mean", "shape": [728], "dtype": "float32"}, {"name": "block5_sepconv3_bn_1/moving_variance", "shape": [728], "dtype": "float32"}, {"name": "block6_sepconv1_1/depthwise_kernel", "shape": [3, 3, 728, 1], "dtype": "float32"}, {"name": "block6_sepconv1_1/pointwise_kernel", "shape": [1, 1, 728, 728], "dtype": "float32"}, {"name": "block6_sepconv1_bn_1/gamma", "shape": [728], "dtype": "float32"}, {"name": "block6_sepconv1_bn_1/beta", "shape": [728], "dtype": "float32"}, {"name": "block6_sepconv1_bn_1/moving_mean", "shape": [728], "dtype": "float32"}, {"name": "block6_sepconv1_bn_1/moving_variance", "shape": [728], "dtype": "float32"}, {"name": "block6_sepconv2_1/depthwise_kernel", "shape": [3, 3, 728, 1], "dtype": "float32"}, {"name": "block6_sepconv2_1/pointwise_kernel", "shape": [1, 1, 728, 728], "dtype": "float32"}, {"name": "block6_sepconv2_bn_1/gamma", "shape": [728], "dtype": "float32"}, {"name": "block6_sepconv2_bn_1/beta", "shape": [728], "dtype": "float32"}, {"name": "block6_sepconv2_bn_1/moving_mean", "shape": [728], "dtype": "float32"}, {"name": "block6_sepconv2_bn_1/moving_variance", "shape": [728], "dtype": "float32"}, {"name": "block6_sepconv3_1/depthwise_kernel", "shape": [3, 3, 728, 1], "dtype": "float32"}, {"name": "block6_sepconv3_1/pointwise_kernel", "shape": [1, 1, 728, 728], "dtype": "float32"}, {"name": "block6_sepconv3_bn_1/gamma", "shape": [728], "dtype": "float32"}, {"name": "block6_sepconv3_bn_1/beta", "shape": [728], "dtype": "float32"}, {"name": "block6_sepconv3_bn_1/moving_mean", "shape": [728], "dtype": "float32"}, {"name": "block6_sepconv3_bn_1/moving_variance", "shape": [728], "dtype": "float32"}, {"name": "block7_sepconv1_1/depthwise_kernel", "shape": [3, 3, 728, 1], "dtype": "float32"}, {"name": "block7_sepconv1_1/pointwise_kernel", "shape": [1, 1, 728, 728], "dtype": "float32"}, {"name": "block7_sepconv1_bn_1/gamma", "shape": [728], "dtype": "float32"}, {"name": "block7_sepconv1_bn_1/beta", "shape": [728], "dtype": "float32"}, {"name": "block7_sepconv1_bn_1/moving_mean", "shape": [728], "dtype": "float32"}, {"name": "block7_sepconv1_bn_1/moving_variance", "shape": [728], "dtype": "float32"}, {"name": "block7_sepconv2_1/depthwise_kernel", "shape": [3, 3, 728, 1], "dtype": "float32"}, {"name": "block7_sepconv2_1/pointwise_kernel", "shape": [1, 1, 728, 728], "dtype": "float32"}, {"name": "block7_sepconv2_bn_1/gamma", "shape": [728], "dtype": "float32"}, {"name": "block7_sepconv2_bn_1/beta", "shape": [728], "dtype": "float32"}, {"name": "block7_sepconv2_bn_1/moving_mean", "shape": [728], "dtype": "float32"}, {"name": "block7_sepconv2_bn_1/moving_variance", "shape": [728], "dtype": "float32"}, {"name": "block7_sepconv3_1/depthwise_kernel", "shape": [3, 3, 728, 1], "dtype": "float32"}, {"name": "block7_sepconv3_1/pointwise_kernel", "shape": [1, 1, 728, 728], "dtype": "float32"}, {"name": "block7_sepconv3_bn_1/gamma", "shape": [728], "dtype": "float32"}, {"name": "block7_sepconv3_bn_1/beta", "shape": [728], "dtype": "float32"}, {"name": "block7_sepconv3_bn_1/moving_mean", "shape": [728], "dtype": "float32"}, {"name": "block7_sepconv3_bn_1/moving_variance", "shape": [728], "dtype": "float32"}, {"name": "block8_sepconv1_1/depthwise_kernel", "shape": [3, 3, 728, 1], "dtype": "float32"}, {"name": "block8_sepconv1_1/pointwise_kernel", "shape": [1, 1, 728, 728], "dtype": "float32"}, {"name": "block8_sepconv1_bn_1/gamma", "shape": [728], "dtype": "float32"}, {"name": "block8_sepconv1_bn_1/beta", "shape": [728], "dtype": "float32"}, {"name": "block8_sepconv1_bn_1/moving_mean", "shape": [728], "dtype": "float32"}, {"name": "block8_sepconv1_bn_1/moving_variance", "shape": [728], "dtype": "float32"}, {"name": "block8_sepconv2_1/depthwise_kernel", "shape": [3, 3, 728, 1], "dtype": "float32"}, {"name": "block8_sepconv2_1/pointwise_kernel", "shape": [1, 1, 728, 728], "dtype": "float32"}, {"name": "block8_sepconv2_bn_1/gamma", "shape": [728], "dtype": "float32"}, {"name": "block8_sepconv2_bn_1/beta", "shape": [728], "dtype": "float32"}, {"name": "block8_sepconv2_bn_1/moving_mean", "shape": [728], "dtype": "float32"}, {"name": "block8_sepconv2_bn_1/moving_variance", "shape": [728], "dtype": "float32"}, {"name": "block8_sepconv3_1/depthwise_kernel", "shape": [3, 3, 728, 1], "dtype": "float32"}, {"name": "block8_sepconv3_1/pointwise_kernel", "shape": [1, 1, 728, 728], "dtype": "float32"}, {"name": "block8_sepconv3_bn_1/gamma", "shape": [728], "dtype": "float32"}, {"name": "block8_sepconv3_bn_1/beta", "shape": [728], "dtype": "float32"}, {"name": "block8_sepconv3_bn_1/moving_mean", "shape": [728], "dtype": "float32"}, {"name": "block8_sepconv3_bn_1/moving_variance", "shape": [728], "dtype": "float32"}, {"name": "block9_sepconv1_1/depthwise_kernel", "shape": [3, 3, 728, 1], "dtype": "float32"}, {"name": "block9_sepconv1_1/pointwise_kernel", "shape": [1, 1, 728, 728], "dtype": "float32"}, {"name": "block9_sepconv1_bn_1/gamma", "shape": [728], "dtype": "float32"}, {"name": "block9_sepconv1_bn_1/beta", "shape": [728], "dtype": "float32"}, {"name": "block9_sepconv1_bn_1/moving_mean", "shape": [728], "dtype": "float32"}, {"name": "block9_sepconv1_bn_1/moving_variance", "shape": [728], "dtype": "float32"}, {"name": "block9_sepconv2_1/depthwise_kernel", "shape": [3, 3, 728, 1], "dtype": "float32"}, {"name": "block9_sepconv2_1/pointwise_kernel", "shape": [1, 1, 728, 728], "dtype": "float32"}, {"name": "block9_sepconv2_bn_1/gamma", "shape": [728], "dtype": "float32"}, {"name": "block9_sepconv2_bn_1/beta", "shape": [728], "dtype": "float32"}, {"name": "block9_sepconv2_bn_1/moving_mean", "shape": [728], "dtype": "float32"}, {"name": "block9_sepconv2_bn_1/moving_variance", "shape": [728], "dtype": "float32"}, {"name": "block9_sepconv3_1/depthwise_kernel", "shape": [3, 3, 728, 1], "dtype": "float32"}, {"name": "block9_sepconv3_1/pointwise_kernel", "shape": [1, 1, 728, 728], "dtype": "float32"}, {"name": "block9_sepconv3_bn_1/gamma", "shape": [728], "dtype": "float32"}, {"name": "block9_sepconv3_bn_1/beta", "shape": [728], "dtype": "float32"}, {"name": "block9_sepconv3_bn_1/moving_mean", "shape": [728], "dtype": "float32"}, {"name": "block9_sepconv3_bn_1/moving_variance", "shape": [728], "dtype": "float32"}, {"name": "conv2d_4/kernel", "shape": [1, 1, 64, 128], "dtype": "float32"}, {"name": "conv2d_5/kernel", "shape": [1, 1, 128, 256], "dtype": "float32"}, {"name": "conv2d_6/kernel", "shape": [1, 1, 256, 728], "dtype": "float32"}, {"name": "conv2d_7/kernel", "shape": [1, 1, 728, 1024], "dtype": "float32"}, {"name": "dense_6/kernel", "shape": [2048, 128], "dtype": "float32"}, {"name": "dense_6/bias", "shape": [128], "dtype": "float32"}, {"name": "dense_7/kernel", "shape": [128, 64], "dtype": "float32"}, {"name": "dense_7/bias", "shape": [64], "dtype": "float32"}, {"name": "dense_8/kernel", "shape": [64, 3], "dtype": "float32"}, {"name": "dense_8/bias", "shape": [3], "dtype": "float32"}]}]}